…
    batch_sampler {
      sampler {
        min_scale: 0.3
        max_scale: 1
        min_aspect_ratio: 0.5
        max_aspect_ratio: 2
      }
      sample_constraint {
        min_jaccard_overlap: 0.9
      }
      max_sample: 1
      max_trials: 50
    }
    batch_sampler {
      sampler {
        min_scale: 0.3
        max_scale: 1
        min_aspect_ratio: 0.5
        max_aspect_ratio: 2
      }
      sample_constraint {
        max_jaccard_overlap: 1
      }
      max_sample: 1
      max_trials: 50
    }
    label_map_file: "labelmap.prototxt"
  }
}
layer {
  name: "conv0"
  type: "Convolution"
  bottom: "data"
  top: "conv0"
  param {
    lr_mult: 0.1
    decay_mult: 0.1
  }
  convolution_param {
    num_output: 32
    bias_term: false
    pad: 1
    kernel_size: 3
    stride: 2
    weight_filler {
      type: "msra"
    }
  }
}
layer {
  name: "conv0/bn"
  type: "BatchNorm"
  bottom: "conv0"
  top: "conv0"
}
layer {
  name: "conv0/scale"
  type: "Scale"
  bottom: "conv0"
  top: "conv0"
  param {
    lr_mult: 0.1
    decay_mult: 0
  }
  param {
    lr_mult: 0.2
    decay_mult: 0
  }
  scale_param {
    filler {
      value: 1
    }
    bias_term: true
    bias_filler {
      value: 0
    }
  }
}
layer {
  name: "conv0/relu"
  type: "ReLU"
  bottom: "conv0"
  top: "conv0"
}
layer {
  name: "conv1/dw"
  type: "Convolution"
  bottom: "conv0"
  top: "conv1/dw"
  param {
    lr_mult: 0.1
    decay_mult: 0.1
  }
  convolution_param {
    num_output: 32
    bias_term: false
    pad: 1
    kernel_size: 3
    group: 32
    weight_filler {
      type: "msra"
    }
    engine: CAFFE
  }
}
layer {
  name: "conv1/dw/bn"
  type: "BatchNorm"
  bottom: "conv1/dw"
  top: "conv1/dw"
}
layer {
  name: "conv1/dw/scale"
  type: "Scale"
  bottom: "conv1/dw"
  top: "conv1/dw"
  param {
    lr_mult: 0.1
    decay_mult: 0
  }
  param {
    lr_mult: 0.2
    decay_mult: 0
  }
  scale_param {
    filler {
      value: 1
    }
    bias_term: true
    bias_filler {
      value: 0
    }
  }
}
layer {
  name: "conv1/dw/relu"
  type: "ReLU"
  bottom: "conv1/dw"
  top: "conv1/dw"
}
layer {
  name: "conv1"
  type: "Convolution"
  bottom: "conv1/dw"
  top: "conv1"
  param {
    lr_mult: 0.1
    decay_mult: 0.1
  }
  convolution_param {
    num_output: 64
    bias_term: false
    kernel_size: 1
    weight_filler {
      type: "msra"
    }
  }
}
layer {
  name: "conv1/bn"
  type: "BatchNorm"
  bottom: "conv1"
  top: "conv1"
}
layer {
  name: "conv1/scale"
  type: "Scale"
  bottom: "conv1"
  top: "conv1"
  param {
    lr_mult: 0.1
    decay_mult: 0
  }
  param {
    lr_mult: 0.2
    decay_mult: 0
  }
  scale_param {
    filler {
      value: 1
    }
    bias_term: true
    bias_filler {
      value: 0
    }
  }
}
layer {
  name: "conv1/relu"
  type: "ReLU"
  bottom: "conv1"
  top: "conv1"
}
layer {
  name: "conv2/dw"
  type: "Convolution"
  bottom: "conv1"
  top: "conv2/dw"
  param {
    lr_mult: 0.1
    decay_mult: 0.1
  }
  convolution_param {
    num_output: 64
    bias_term: false
    pad: 1
    kernel_size: 3
    group: 64
    stride: 2
    weight_filler {
      type: "msra"
    }
    engine: CAFFE
  }
}
layer {
  name: "conv2/dw/bn"
  type: "BatchNorm"
  bottom: "conv2/dw"
  top: "conv2/dw"
}
layer {
  name: "conv2/dw/scale"
  type: "Scale"
  bottom: "conv2/dw"
  top: "conv2/dw"
  param {
    lr_mult: 0.1
    decay_mult: 0
  }
  param {
    lr_mult: 0.2
    decay_mult: 0
  }
  scale_param {
    filler {
      value: 1
    }
    bias_term: true
    bias_filler {
      value: 0
    }
  }
}
layer {
  name: "conv2/dw/relu"
  type: "ReLU"
  bottom: "conv2/dw"
  top: "conv2/dw"
}
layer {
  name: "conv2"
  type: "Convolution"
  bottom: "conv2/dw"
  top: "conv2"
  param {
    lr_mult: 0.1
    decay_mult: 0.1
  }
  convolution_param {
    num_output: 128
    bias_term: false
    kernel_size: 1
    weight_filler {
      type: "msra"
    }
  }
}
layer {
  name: "conv2/bn"
  type: "BatchNorm"
  bottom: "conv2"
  top: "conv2"
}
layer {
  name: "conv2/scale"
  type: "Scale"
  bottom: "conv2"
  top: "conv2"
  param {
    lr_mult: 0.1
    decay_mult: 0
  }
  param {
    lr_mult: 0.2
    decay_mult: 0
  }
  scale_param {
    filler {
      value: 1
    }
    bias_term: true
    bias_filler {
      value: 0
    }
  }
}
layer {
  name: "conv2/relu"
  type: "ReLU"
  bottom: "conv2"
  top: "conv2"
}
layer {
  name: "conv3/dw"
  type: "Convolution"
  bottom: "conv2"
  top: "conv3/dw"
  param {
    lr_mult: 0.1
    decay_mult: 0.1
  }
  convolution_param {
    num_output: 128
    bias_term: false
    pad: 1
    kernel_size: 3
    group: 128
    weight_filler {
      type: "msra"
    }
    engine: CAFFE
  }
}
layer {
  name: "conv3/dw/bn"
  type: "BatchNorm"
  bottom: "conv3/dw"
  top: "conv3/dw"
}
layer {
  name: "conv3/dw/scale"
  type: "Scale"
  bottom: "conv3/dw"
  top: "conv3/dw"
  param {
    lr_mult: 0.1
    decay_mult: 0
  }
  param {
    lr_mult: 0.2
    decay_mult: 0
  }
  scale_param {
    filler {
      value: 1
    }
    bias_term: true
    bias_filler {
      value: 0
    }
  }
}
layer {
  name: "conv3/dw/relu"
  type: "ReLU"
  bottom: "conv3/dw"
  top: "conv3/dw"
}
layer {
  name: "conv3"
  type: "Convolution"
  bottom: "conv3/dw"
  top: "conv3"
  param {
    lr_mult: 0.1
    decay_mult: 0.1
  }
  convolution_param {
    num_output: 128
    bias_term: false
    kernel_size: 1
    weight_filler {
      type: "msra"
    }
  }
}
layer {
  name: "conv3/bn"
  type: "BatchNorm"
  bottom: "conv3"
  top: "conv3"
}
layer {
  name: "conv3/scale"
  type: "Scale"
  bottom: "conv3"
  top: "conv3"
  param {
    lr_mult: 0.1
    decay_mult: 0
  }
  param {
    lr_mult: 0.2
    decay_mult: 0
  }
  scale_param {
    filler {
      value: 1
    }
    bias_term: true
    bias_filler {
      value: 0
    }
  }
}
layer {
  name: "conv3/relu"
  type: "ReLU"
  bottom: "conv3"
  top: "conv3"
}
layer {
  name: "conv4/dw"
  type: "Convolution"
  bottom: "conv3"
  top: "conv4/dw"
  param {
    lr_mult: 0.1
    decay_mult: 0.1
  }
  convolution_param {
    num_output: 128
    bias_term: false
    pad: 1
    kernel_size: 3
    group: 128
    stride: 2
    weight_filler {
      type: "msra"
    }
    engine: CAFFE
  }
}
layer {
  name: "conv4/dw/bn"
  type: "BatchNorm"
  bottom: "conv4/dw"
  top: "conv4/dw"
}
layer {
  name: "conv4/dw/scale"
  type: "Scale"
  bottom: "conv4/dw"
  top: "conv4/dw"
  param {
    lr_mult: 0.1
    decay_mult: 0
  }
  param {
    lr_mult: 0.2
    decay_mult: 0
  }
  scale_param {
    filler {
      value: 1
    }
    bias_term: true
    bias_filler {
      value: 0
    }
  }
}
layer {
  name: "conv4/dw/relu"
  type: "ReLU"
  bottom: "conv4/dw"
  top: "conv4/dw"
}
layer {
  name: "conv4"
  type: "Convolution"
  bottom: "conv4/dw"
  top: "conv4"
  param {
    lr_mult: 0.1
    decay_mult: 0.1
  }
  convolution_param {
    num_output: 256
    bias_term: false
    kernel_size: 1
    weight_filler {
      type: "msra"
    }
  }
}
layer {
  name: "conv4/bn"
  type: "BatchNorm"
  bottom: "conv4"
  top: "conv4"
}
layer {
  name: "conv4/scale"
  type: "Scale"
  bottom: "conv4"
  top: "conv4"
  param {
    lr_mult: 0.1
    decay_mult: 0
  }
  param {
    lr_mult: 0.2
    decay_mult: 0
  }
  scale_param {
    filler {
      value: 1
    }
    bias_term: true
    bias_filler {
      value: 0
    }
  }
}
layer {
  name: "conv4/relu"
  type: "ReLU"
  bottom: "conv4"
  top: "conv4"
}
layer {
  name: "conv5/dw"
  type: "Convolution"
  bottom: "conv4"
  top: "conv5/dw"
  param {
    lr_mult: 0.1
    decay_mult: 0.1
  }
  convolution_param {
    num_output: 256
    bias_term: false
    pad: 1
    kernel_size: 3
    group: 256
    weight_filler {
      type: "msra"
    }
    engine: CAFFE
  }
}
layer {
  name: "conv5/dw/bn"
  type: "BatchNorm"
  bottom: "conv5/dw"
  top: "conv5/dw"
}
layer {
  name: "conv5/dw/scale"
  type: "Scale"
  bottom: "conv5/dw"
  top: "conv5/dw"
  param {
    lr_mult: 0.1
    decay_mult: 0
  }
  param {
    lr_mult: 0.2
    decay_mult: 0
  }
  scale_param {
    filler {
      value: 1
    }
    bias_term: true
    bias_filler {
      value: 0
    }
  }
}
layer {
  name: "conv5/dw/relu"
  type: "ReLU"
  bottom: "conv5/dw"
  top: "conv5/dw"
}
layer {
  name: "conv5"
  type: "Convolution"
  bottom: "conv5/dw"
  top: "conv5"
  param {
    lr_mult: 0.1
    decay_mult: 0.1
  }
  convolution_param {
    num_output: 256
    bias_term: false
    kernel_size: 1
    weight_filler {
      type: "msra"
    }
  }
}
layer {
  name: "conv5/bn"
  type: "BatchNorm"
  bottom: "conv5"
  top: "conv5"
}
layer {
  name: "conv5/scale"
  type: "Scale"
  bottom: "conv5"
  top: "conv5"
  param {
    lr_mult: 0.1
    decay_mult: 0
  }
  param {
    lr_mult: 0.2
    decay_mult: 0
  }
  scale_param {
    filler {
      value: 1
    }
    bias_term: true
    bias_filler {
      value: 0
    }
  }
}
layer {
  name: "conv5/relu"
  type: "ReLU"
  bottom: "conv5"
  top: "conv5"
}
layer {
  name: "conv6/dw"
  type: "Convolution"
  bottom: "conv5"
  top: "conv6/dw"
  param {
    lr_mult: 0.1
    decay_mult: 0.1
  }
  convolution_param {
    num_output: 256
    bias_term: false
    pad: 1
    kernel_size: 3
    group: 256
    stride: 2
    weight_filler {
      type: "msra"
    }
    engine: CAFFE
  }
}
layer {
  name: "conv6/dw/bn"
  type: "BatchNorm"
  bottom: "conv6/dw"
  top: "conv6/dw"
}
layer {
  name: "conv6/dw/scale"
  type: "Scale"
  bottom: "conv6/dw"
  top: "conv6/dw"
  param {
    lr_mult: 0.1
    decay_mult: 0
  }
  param {
    lr_mult: 0.2
    decay_mult: 0
  }
  scale_param {
    filler {
      value: 1
    }
    bias_term: true
    bias_filler {
      value: 0
    }
  }
}
layer {
  name: "conv6/dw/relu"
  type: "ReLU"
  bottom: "conv6/dw"
  top: "conv6/dw"
}
layer {
  name: "conv6"
  type: "Convolution"
  bottom: "conv6/dw"
  top: "conv6"
  param {
    lr_mult: 0.1
    decay_mult: 0.1
  }
  convolution_param {
    num_output: 512
    bias_term: false
    kernel_size: 1
    weight_filler {
      type: "msra"
    }
  }
}
layer {
  name: "conv6/bn"
  type: "BatchNorm"
  bottom: "conv6"
  top: "conv6"
}
layer {
  name: "conv6/scale"
  type: "Scale"
  bottom: "conv6"
  top: "conv6"
  param {
    lr_mult: 0.1
    decay_mult: 0
  }
  param {
    lr_mult: 0.2
    decay_mult: 0
  }
  scale_param {
    filler {
      value: 1
    }
    bias_term: true
    bias_filler {
      value: 0
    }
  }
}
layer {
  name: "conv6/relu"
  type: "ReLU"
  bottom: "conv6"
  top: "conv6"
}
layer {
  name: "conv7/dw"
  type: "Convolution"
  bottom: "conv6"
  top: "conv7/dw"
  param {
    lr_mult: 0.1
    decay_mult: 0.1
  }
  convolution_param {
    num_output: 512
    bias_term: false
    pad: 1
    kernel_size: 3
    group: 512
    weight_filler {
      type: "msra"
    }
    engine: CAFFE
  }
}
layer {
  name: "conv7/dw/bn"
  type: "BatchNorm"
  bottom: "conv7/dw"
  top: "conv7/dw"
}
layer {
  name: "conv7/dw/scale"
  type: "Scale"
  bottom: "conv7/dw"
  top: "conv7/dw"
  param {
    lr_mult: 0.1
    decay_mult: 0
  }
  param {
    lr_mult: 0.2
    decay_mult: 0
  }
  scale_param {
    filler {
      value: 1
    }
    bias_term: true
    bias_filler {
      value: 0
    }
  }
}
layer {
  name: "conv7/dw/relu"
  type: "ReLU"
  bottom: "conv7/dw"
  top: "conv7/dw"
}
layer {
  name: "conv7"
  type: "Convolution"
  bottom: "conv7/dw"
  top: "conv7"
  param {
    lr_mult: 0.1
    decay_mult: 0.1
  }
  convolution_param {
    num_output: 512
    bias_term: false
    kernel_size: 1
    weight_filler {
      type: "msra"
    }
  }
}
layer {
  name: "conv7/bn"
  type: "BatchNorm"
  bottom: "conv7"
  top: "conv7"
}
layer {
  name: "conv7/scale"
  type: "Scale"
  bottom: "conv7"
  top: "conv7"
  param {
    lr_mult: 0.1
    decay_mult: 0
  }
  param {
    lr_mult: 0.2
    decay_mult: 0
  }
  scale_param {
    filler {
      value: 1
    }
    bias_term: true
    bias_filler {
      value: 0
    }
  }
}
layer {
  name: "conv7/relu"
  type: "ReLU"
  bottom: "conv7"
  top: "conv7"
}
layer {
  name: "conv8/dw"
  type: "Convolution"
  bottom: "conv7"
  top: "conv8/dw"
  param {
    lr_mult: 0.1
    decay_mult: 0.1
  }
  convolution_param {
    num_output: 512
    bias_term: false
    pad: 1
    kernel_size: 3
    group: 512
    weight_filler {
      type: "msra"
    }
    engine: CAFFE
  }
}
layer {
  name: "conv8/dw/bn"
  type: "BatchNorm"
  bottom: "conv8/dw"
  top: "conv8/dw"
}
layer {
  name: "conv8/dw/scale"
  type: "Scale"
  bottom: "conv8/dw"
  top: "conv8/dw"
  param {
    lr_mult: 0.1
    decay_mult: 0
  }
  param {
    lr_mult: 0.2
    decay_mult: 0
  }
  scale_param {
    filler {
      value: 1
    }
    bias_term: true
    bias_filler {
      value: 0
    }
  }
}
layer {
  name: "conv8/dw/relu"
  type: "ReLU"
  bottom: "conv8/dw"
  top: "conv8/dw"
}
layer {
  name: "conv8"
  type: "Convolution"
  bottom: "conv8/dw"
  top: "conv8"
  param {
    lr_mult: 0.1
    decay_mult: 0.1
  }
  convolution_param {
    num_output: 512
    bias_term: false
    kernel_size: 1
    weight_filler {
      type: "msra"
    }
  }
}
layer {
  name: "conv8/bn"
  type: "BatchNorm"
  bottom: "conv8"
  top: "conv8"
}
layer {
  name: "conv8/scale"
  type: "Scale"
  bottom: "conv8"
  top: "conv8"
  param {
    lr_mult: 0.1
    decay_mult: 0
  }
  param {
    lr_mult: 0.2
    decay_mult: 0
  }
  scale_param {
    filler {
      value: 1
    }
    bias_term: true
    bias_filler {
      value: 0
    }
  }
}
layer {
  name: "conv8/relu"
  type: "ReLU"
  bottom: "conv8"
  top: "conv8"
}
layer {
  name: "conv9/dw"
  type: "Convolution"
  bottom: "conv8"
  top: "conv9/dw"
  param {
    lr_mult: 0.1
    decay_mult: 0.1
  }
  convolution_param {
    num_output: 512
    bias_term: false
    pad: 1
    kernel_size: 3
    group: 512
    weight_filler {
      type: "msra"
    }
    engine: CAFFE
  }
}
layer {
  name: "conv9/dw/bn"
  type: "BatchNorm"
  bottom: "conv9/dw"
  top: "conv9/dw"
}
layer {
  name: "conv9/dw/scale"
  type: "Scale"
  bottom: "conv9/dw"
  top: "conv9/dw"
  param {
    lr_mult: 0.1
    decay_mult: 0
  }
  param {
    lr_mult: 0.2
    decay_mult: 0
  }
  scale_param {
    filler {
      value: 1
    }
    bias_term: true
    bias_filler {
      value: 0
    }
  }
}
layer {
  name: "conv9/dw/relu"
  type: "ReLU"
  bottom: "conv9/dw"
  top: "conv9/dw"
}
layer {
  name: "conv9"
  type: "Convolution"
  bottom: "conv9/dw"
  top: "conv9"
  param {
    lr_mult: 0.1
    decay_mult: 0.1
  }
  convolution_param {
    num_output: 512
    bias_term: false
    kernel_size: 1
    weight_filler {
      type: "msra"
    }
  }
}
layer {
  name: "conv9/bn"
  type: "BatchNorm"
  bottom: "conv9"
  top: "conv9"
}
layer {
  name: "conv9/scale"
  type: "Scale"
  bottom: "conv9"
  top: "conv9"
  param {
    lr_mult: 0.1
    decay_mult: 0
  }
  param {
    lr_mult: 0.2
    decay_mult: 0
  }
  scale_param {
    filler {
      value: 1
    }
    bias_term: true
    bias_filler {
      value: 0
    }
  }
}
layer {
  name: "conv9/relu"
  type: "ReLU"
  bottom: "conv9"
  top: "conv9"
}
layer {
  name: "conv10/dw"
  type: "Convolution"
  bottom: "conv9"
  top: "conv10/dw"
  param {
    lr_mult: 0.1
    decay_mult: 0.1
  }
  convolution_param {
    num_output: 512
    bias_term: false
    pad: 1
    kernel_size: 3
    group: 512
    weight_filler {
      type: "msra"
    }
    engine: CAFFE
  }
}
layer {
  name: "conv10/dw/bn"
  type: "BatchNorm"
  bottom: "conv10/dw"
  top: "conv10/dw"
}
layer {
  name: "conv10/dw/scale"
  type: "Scale"
  bottom: "conv10/dw"
  top: "conv10/dw"
  param {
    lr_mult: 0.1
    decay_mult: 0
  }
  param {
    lr_mult: 0.2
    decay_mult: 0
  }
  scale_param {
    filler {
      value: 1
    }
    bias_term: true
    bias_filler {
      value: 0
    }
  }
}
layer {
  name: "conv10/dw/relu"
  type: "ReLU"
  bottom: "conv10/dw"
  top: "conv10/dw"
}
layer {
  name: "conv10"
  type: "Convolution"
  bottom: "conv10/dw"
  top: "conv10"
  param {
    lr_mult: 0.1
    decay_mult: 0.1
  }
  convolution_param {
    num_output: 512
    bias_term: false
    kernel_size: 1
    weight_filler {
      type: "msra"
    }
  }
}
layer {
  name: "conv10/bn"
  type: "BatchNorm"
  bottom: "conv10"
  top: "conv10"
}
layer {
  name: "conv10/scale"
  type: "Scale"
  bottom: "conv10"
  top: "conv10"
  param {
    lr_mult: 0.1
    decay_mult: 0
  }
  param {
    lr_mult: 0.2
    decay_mult: 0
  }
  scale_param {
    filler {
      value: 1
    }
    bias_term: true
    bias_filler {
      value: 0
    }
  }
}
layer {
  name: "conv10/relu"
  type: "ReLU"
  bottom: "conv10"
  top: "conv10"
}
layer {
  name: "conv11/dw"
  type: "Convolution"
  bottom: "conv10"
  top: "conv11/dw"
  param {
    lr_mult: 0.1
    decay_mult: 0.1
  }
  convolution_param {
    num_output: 512
    bias_term: false
    pad: 1
    kernel_size: 3
    group: 512
    weight_filler {
      type: "msra"
    }
    engine: CAFFE
  }
}
layer {
  name: "conv11/dw/bn"
  type: "BatchNorm"
  bottom: "conv11/dw"
  top: "conv11/dw"
}
layer {
  name: "conv11/dw/scale"
  type: "Scale"
  bottom: "conv11/dw"
  top: "conv11/dw"
  param {
    lr_mult: 0.1
    decay_mult: 0
  }
  param {
    lr_mult: 0.2
    decay_mult: 0
  }
  scale_param {
    filler {
      value: 1
    }
    bias_term: true
    bias_filler {
      value: 0
    }
  }
}
layer {
  name: "conv11/dw/relu"
  type: "ReLU"
  bottom: "conv11/dw"
  top: "conv11/dw"
}
layer {
  name: "conv11"
  type: "Convolution"
  bottom: "conv11/dw"
  top: "conv11"
  param {
    lr_mult: 0.1
    decay_mult: 0.1
  }
  convolution_param {
    num_output: 512
    bias_term: false
    kernel_size: 1
    weight_filler {
      type: "msra"
    }
  }
}
layer {
  name: "conv11/bn"
  type: "BatchNorm"
  bottom: "conv11"
  top: "conv11"
}
layer {
  name: "conv11/scale"
  type: "Scale"
  bottom: "conv11"
  top: "conv11"
  param {
    lr_mult: 0.1
    decay_mult: 0
  }
  param {
    lr_mult: 0.2
    decay_mult: 0
  }
  scale_param {
    filler {
      value: 1
    }
    bias_term: true
    bias_filler {
      value: 0
    }
  }
}
layer {
  name: "conv11/relu"
  type: "ReLU"
  bottom: "conv11"
  top: "conv11"
}
layer {
  name: "conv12/dw"
  type: "Convolution"
  bottom: "conv11"
  top: "conv12/dw"
  param {
    lr_mult: 0.1
    decay_mult: 0.1
  }
  convolution_param {
    num_output: 512
    bias_term: false
    pad: 1
    kernel_size: 3
    group: 512
    stride: 2
    weight_filler {
      type: "msra"
    }
    engine: CAFFE
  }
}
layer {
  name: "conv12/dw/bn"
  type: "BatchNorm"
  bottom: "conv12/dw"
  top: "conv12/dw"
}
layer {
  name: "conv12/dw/scale"
  type: "Scale"
  bottom: "conv12/dw"
  top: "conv12/dw"
  param {
    lr_mult: 0.1
    decay_mult: 0
  }
  param {
    lr_mult: 0.2
    decay_mult: 0
  }
  scale_param {
    filler {
      value: 1
    }
    bias_term: true
    bias_filler {
      value: 0
    }
  }
}
layer {
  name: "conv12/dw/relu"
  type: "ReLU"
  bottom: "conv12/dw"
  top: "conv12/dw"
}
layer {
  name: "conv12"
  type: "Convolution"
  bottom: "conv12/dw"
  top: "conv12"
  param {
    lr_mult: 0.1
    decay_mult: 0.1
  }
  convolution_param {
    num_output: 1024
    bias_term: false
    kernel_size: 1
    weight_filler {
      type: "msra"
    }
  }
}
layer {
  name: "conv12/bn"
  type: "BatchNorm"
  bottom: "conv12"
  top: "conv12"
}
layer {
  name: "conv12/scale"
  type: "Scale"
  bottom: "conv12"
  top: "conv12"
  param {
    lr_mult: 0.1
    decay_mult: 0
  }
  param {
    lr_mult: 0.2
    decay_mult: 0
  }
  scale_param {
    filler {
      value: 1
    }
    bias_term: true
    bias_filler {
      value: 0
    }
  }
}
layer {
  name: "conv12/relu"
  type: "ReLU"
  bottom: "conv12"
  top: "conv12"
}
layer {
  name: "conv13/dw"
  type: "Convolution"
  bottom: "conv12"
  top: "conv13/dw"
  param {
    lr_mult: 0.1
    decay_mult: 0.1
  }
  convolution_param {
    num_output: 1024
    bias_term: false
    pad: 1
    kernel_size: 3
    group: 1024
    weight_filler {
      type: "msra"
    }
    engine: CAFFE
  }
}
layer {
  name: "conv13/dw/bn"
  type: "BatchNorm"
  bottom: "conv13/dw"
  top: "conv13/dw"
}
layer {
  name: "conv13/dw/scale"
  type: "Scale"
  bottom: "conv13/dw"
  top: "conv13/dw"
  param {
    lr_mult: 0.1
    decay_mult: 0
  }
  param {
    lr_mult: 0.2
    decay_mult: 0
  }
  scale_param {
    filler {
      value: 1
    }
    bias_term: true
    bias_filler {
      value: 0
    }
  }
}
layer {
  name: "conv13/dw/relu"
  type: "ReLU"
  bottom: "conv13/dw"
  top: "conv13/dw"
}
layer {
  name: "conv13"
  type: "Convolution"
  bottom: "conv13/dw"
  top: "conv13"
  param {
    lr_mult: 0.1
    decay_mult: 0.1
  }
  convolution_param {
    num_output: 1024
    bias_term: false
    kernel_size: 1
    weight_filler {
      type: "msra"
    }
  }
}
layer {
  name: "conv13/bn"
  type: "BatchNorm"
  bottom: "conv13"
  top: "conv13"
}
layer {
  name: "conv13/scale"
  type: "Scale"
  bottom: "conv13"
  top: "conv13"
  param {
    lr_mult: 0.1
    decay_mult: 0
  }
  param {
    lr_mult: 0.2
    decay_mult: 0
  }
  scale_param {
    filler {
      value: 1
    }
    bias_term: true
    bias_filler {
      value: 0
    }
  }
}
layer {
  name: "conv13/relu"
  type: "ReLU"
  bottom: "conv13"
  top: "conv13"
}
layer {
  name: "conv14_1"
  type: "Convolution"
  bottom: "conv13"
  top: "conv14_1"
  param {
    lr_mult: 0.1
    decay_mult: 0.1
  }
  convolution_param {
    num_output: 256
    bias_term: false
    kernel_size: 1
    weight_filler {
      type: "msra"
    }
  }
}
layer {
  name: "conv14_1/bn"
  type: "BatchNorm"
  bottom: "conv14_1"
  top: "conv14_1"
}
layer {
  name: "conv14_1/scale"
  type: "Scale"
  bottom: "conv14_1"
  top: "conv14_1"
  param {
    lr_mult: 0.1
    decay_mult: 0
  }
  param {
    lr_mult: 0.2
    decay_mult: 0
  }
  scale_param {
    filler {
      value: 1
    }
    bias_term: true
    bias_filler {
      value: 0
    }
  }
}
layer {
  name: "conv14_1/relu"
  type: "ReLU"
  bottom: "conv14_1"
  top: "conv14_1"
}
layer {
  name: "conv14_2"
  type: "Convolution"
  bottom: "conv14_1"
  top: "conv14_2"
  param {
    lr_mult: 0.1
    decay_mult: 0.1
  }
  convolution_param {
    num_output: 512
    bias_term: false
    pad: 1
    kernel_size: 3
    stride: 2
    weight_filler {
      type: "msra"
    }
  }
}
layer {
  name: "conv14_2/bn"
  type: "BatchNorm"
  bottom: "conv14_2"
  top: "conv14_2"
}
layer {
  name: "conv14_2/scale"
  type: "Scale"
  bottom: "conv14_2"
  top: "conv14_2"
  param {
    lr_mult: 0.1
    decay_mult: 0
  }
  param {
    lr_mult: 0.2
    decay_mult: 0
  }
  scale_param {
    filler {
      value: 1
    }
    bias_term: true
    bias_filler {
      value: 0
    }
  }
}
layer {
  name: "conv14_2/relu"
  type: "ReLU"
  bottom: "conv14_2"
  top: "conv14_2"
}
layer {
  name: "conv15_1"
  type: "Convolution"
  bottom: "conv14_2"
  top: "conv15_1"
  param {
    lr_mult: 0.1
    decay_mult: 0.1
  }
  convolution_param {
    num_output: 128
    bias_term: false
    kernel_size: 1
    weight_filler {
      type: "msra"
    }
  }
}
layer {
  name: "conv15_1/bn"
  type: "BatchNorm"
  bottom: "conv15_1"
  top: "conv15_1"
}
layer {
  name: "conv15_1/scale"
  type: "Scale"
  bottom: "conv15_1"
  top: "conv15_1"
  param {
    lr_mult: 0.1
    decay_mult: 0
  }
  param {
    lr_mult: 0.2
    decay_mult: 0
  }
  scale_param {
    filler {
      value: 1
    }
    bias_term: true
    bias_filler {
      value: 0
    }
  }
}
layer {
  name: "conv15_1/relu"
  type: "ReLU"
  bottom: "conv15_1"
  top: "conv15_1"
}
layer {
  name: "conv15_2"
  type: "Convolution"
  bottom: "conv15_1"
  top: "conv15_2"
  param {
    lr_mult: 0.1
    decay_mult: 0.1
  }
  convolution_param {
    num_output: 256
    bias_term: false
    pad: 1
    kernel_size: 3
    stride: 2
    weight_filler {
      type: "msra"
    }
  }
}
layer {
  name: "conv15_2/bn"
  type: "BatchNorm"
  bottom: "conv15_2"
  top: "conv15_2"
}
layer {
  name: "conv15_2/scale"
  type: "Scale"
  bottom: "conv15_2"
  top: "conv15_2"
  param {
    lr_mult: 0.1
    decay_mult: 0
  }
  param {
    lr_mult: 0.2
    decay_mult: 0
  }
  scale_param {
    filler {
      value: 1
    }
    bias_term: true
    bias_filler {
      value: 0
    }
  }
}
layer {
  name: "conv15_2/relu"
  type: "ReLU"
  bottom: "conv15_2"
  top: "conv15_2"
}
layer {
  name: "conv16_1"
  type: "Convolution"
  bottom: "conv15_2"
  top: "conv16_1"
  param {
    lr_mult: 0.1
    decay_mult: 0.1
  }
  convolution_param {
    num_output: 128
    bias_term: false
    kernel_size: 1
    weight_filler {
      type: "msra"
    }
  }
}
layer {
  name: "conv16_1/bn"
  type: "BatchNorm"
  bottom: "conv16_1"
  top: "conv16_1"
}
layer {
  name: "conv16_1/scale"
  type: "Scale"
  bottom: "conv16_1"
  top: "conv16_1"
  param {
    lr_mult: 0.1
    decay_mult: 0
  }
  param {
    lr_mult: 0.2
    decay_mult: 0
  }
  scale_param {
    filler {
      value: 1
    }
    bias_term: true
    bias_filler {
      value: 0
    }
  }
}
layer {
  name: "conv16_1/relu"
  type: "ReLU"
  bottom: "conv16_1"
  top: "conv16_1"
}
layer {
  name: "conv16_2"
  type: "Convolution"
  bottom: "conv16_1"
  top: "conv16_2"
  param {
    lr_mult: 0.1
    decay_mult: 0.1
  }
  convolution_param {
    num_output: 256
    bias_term: false
    pad: 1
    kernel_size: 3
    stride: 2
    weight_filler {
      type: "msra"
    }
  }
}
layer {
  name: "conv16_2/bn"
  type: "BatchNorm"
  bottom: "conv16_2"
  top: "conv16_2"
}
layer {
  name: "conv16_2/scale"
  type: "Scale"
  bottom: "conv16_2"
  top: "conv16_2"
  param {
    lr_mult: 0.1
    decay_mult: 0
  }
  param {
    lr_mult: 0.2
    decay_mult: 0
  }
  scale_param {
    filler {
      value: 1
    }
    bias_term: true
    bias_filler {
      value: 0
    }
  }
}
layer {
  name: "conv16_2/relu"
  type: "ReLU"
  bottom: "conv16_2"
  top: "conv16_2"
}
layer {
  name: "conv17_1"
  type: "Convolution"
  bottom: "conv16_2"
  top: "conv17_1"
  param {
    lr_mult: 0.1
    decay_mult: 0.1
  }
  convolution_param {
    num_output: 64
    bias_term: false
    kernel_size: 1
    weight_filler {
      type: "msra"
    }
  }
}
layer {
  name: "conv17_1/bn"
  type: "BatchNorm"
  bottom: "conv17_1"
  top: "conv17_1"
}
layer {
  name: "conv17_1/scale"
  type: "Scale"
  bottom: "conv17_1"
  top: "conv17_1"
  param {
    lr_mult: 0.1
    decay_mult: 0
  }
  param {
    lr_mult: 0.2
    decay_mult: 0
  }
  scale_param {
    filler {
      value: 1
    }
    bias_term: true
    bias_filler {
      value: 0
    }
  }
}
layer {
  name: "conv17_1/relu"
  type: "ReLU"
  bottom: "conv17_1"
  top: "conv17_1"
}
layer {
  name: "conv17_2"
  type: "Convolution"
  bottom: "conv17_1"
  top: "conv17_2"
  param {
    lr_mult: 0.1
    decay_mult: 0.1
  }
  convolution_param {
    num_output: 128
    bias_term: false
    pad: 1
    kernel_size: 3
    stride: 2
    weight_filler {
      type: "msra"
    }
  }
}
layer {
  name: "conv17_2/bn"
  type: "BatchNorm"
  bottom: "conv17_2"
  top: "conv17_2"
}
layer {
  name: "conv17_2/scale"
  type: "Scale"
  bottom: "conv17_2"
  top: "conv17_2"
  param {
    lr_mult: 0.1
    decay_mult: 0
  }
  param {
    lr_mult: 0.2
    decay_mult: 0
  }
  scale_param {
    filler {
      value: 1
    }
    bias_term: true
    bias_filler {
      value: 0
    }
  }
}
layer {
  name: "conv17_2/relu"
  type: "ReLU"
  bottom: "conv17_2"
  top: "conv17_2"
}
layer {
  name: "conv11_mbox_loc"
  type: "Convolution"
  bottom: "conv11"
  top: "conv11_mbox_loc"
  param {
    lr_mult: 0.1
    decay_mult: 0.1
  }
  param {
    lr_mult: 0.2
    decay_mult: 0
  }
  convolution_param {
    num_output: 12
    kernel_size: 1
    weight_filler {
      type: "msra"
    }
    bias_filler {
      type: "constant"
      value: 0
    }
  }
}
layer {
  name: "conv11_mbox_loc_perm"
  type: "Permute"
  bottom: "conv11_mbox_loc"
  top: "conv11_mbox_loc_perm"
  permute_param {
    order: 0
    ord
I0521 19:57:43.640143 15516 layer_factory.hpp:77] Creating layer data
I0521 19:57:43.640730 15516 net.cpp:100] Creating Layer data
I0521 19:57:43.640745 15516 net.cpp:408] data -> data
I0521 19:57:43.640776 15516 net.cpp:408] data -> label
I0521 19:57:43.642554 15522 db_lmdb.cpp:35] Opened lmdb trainval_lmdb/
I0521 19:57:48.551391 15516 annotated_data_layer.cpp:62] output data size: 8,3,300,300
I0521 19:57:48.561134 15516 net.cpp:150] Setting up data
I0521 19:57:48.561172 15516 net.cpp:157] Top shape: 8 3 300 300 (2160000)
I0521 19:57:48.561178 15516 net.cpp:157] Top shape: 1 1 2 8 (16)
I0521 19:57:48.561182 15516 net.cpp:165] Memory required for data: 8640064
I0521 19:57:48.561193 15516 layer_factory.hpp:77] Creating layer data_data_0_split
I0521 19:57:48.561205 15516 net.cpp:100] Creating Layer data_data_0_split
I0521 19:57:48.561211 15516 net.cpp:434] data_data_0_split <- data
I0521 19:57:48.561223 15516 net.cpp:408] data_data_0_split -> data_data_0_split_0
I0521 19:57:48.561233 15516 net.cpp:408] data_data_0_split -> data_data_0_split_1
I0521 19:57:48.561239 15516 net.cpp:408] data_data_0_split -> data_data_0_split_2
I0521 19:57:48.561245 15516 net.cpp:408] data_data_0_split -> data_data_0_split_3
I0521 19:57:48.561251 15516 net.cpp:408] data_data_0_split -> data_data_0_split_4
I0521 19:57:48.561257 15516 net.cpp:408] data_data_0_split -> data_data_0_split_5
I0521 19:57:48.561264 15516 net.cpp:408] data_data_0_split -> data_data_0_split_6
I0521 19:57:48.561374 15516 net.cpp:150] Setting up data_data_0_split
I0521 19:57:48.561383 15516 net.cpp:157] Top shape: 8 3 300 300 (2160000)
I0521 19:57:48.561388 15516 net.cpp:157] Top shape: 8 3 300 300 (2160000)
I0521 19:57:48.561391 15516 net.cpp:157] Top shape: 8 3 300 300 (2160000)
I0521 19:57:48.561408 15516 net.cpp:157] Top shape: 8 3 300 300 (2160000)
I0521 19:57:48.561414 15516 net.cpp:157] Top shape: 8 3 300 300 (2160000)
I0521 19:57:48.561419 15516 net.cpp:157] Top shape: 8 3 300 300 (2160000)
I0521 19:57:48.561424 15516 net.cpp:157] Top shape: 8 3 300 300 (2160000)
I0521 19:57:48.561427 15516 net.cpp:165] Memory required for data: 69120064
I0521 19:57:48.561431 15516 layer_factory.hpp:77] Creating layer conv0
I0521 19:57:48.561447 15516 net.cpp:100] Creating Layer conv0
I0521 19:57:48.561453 15516 net.cpp:434] conv0 <- data_data_0_split_0
I0521 19:57:48.561460 15516 net.cpp:408] conv0 -> conv0
I0521 19:57:49.010315 15516 net.cpp:150] Setting up conv0
I0521 19:57:49.010350 15516 net.cpp:157] Top shape: 8 32 150 150 (5760000)
I0521 19:57:49.010354 15516 net.cpp:165] Memory required for data: 92160064
I0521 19:57:49.010368 15516 layer_factory.hpp:77] Creating layer conv0/bn
I0521 19:57:49.010377 15516 net.cpp:100] Creating Layer conv0/bn
I0521 19:57:49.010381 15516 net.cpp:434] conv0/bn <- conv0
I0521 19:57:49.010387 15516 net.cpp:395] conv0/bn -> conv0 (in-place)
I0521 19:57:49.010532 15516 net.cpp:150] Setting up conv0/bn
I0521 19:57:49.010541 15516 net.cpp:157] Top shape: 8 32 150 150 (5760000)
I0521 19:57:49.010545 15516 net.cpp:165] Memory required for data: 115200064
I0521 19:57:49.010553 15516 layer_factory.hpp:77] Creating layer conv0/scale
I0521 19:57:49.010565 15516 net.cpp:100] Creating Layer conv0/scale
I0521 19:57:49.010571 15516 net.cpp:434] conv0/scale <- conv0
I0521 19:57:49.010576 15516 net.cpp:395] conv0/scale -> conv0 (in-place)
I0521 19:57:49.010607 15516 layer_factory.hpp:77] Creating layer conv0/scale
I0521 19:57:49.010711 15516 net.cpp:150] Setting up conv0/scale
I0521 19:57:49.010720 15516 net.cpp:157] Top shape: 8 32 150 150 (5760000)
I0521 19:57:49.010723 15516 net.cpp:165] Memory required for data: 138240064
I0521 19:57:49.010730 15516 layer_factory.hpp:77] Creating layer conv0/relu
I0521 19:57:49.010737 15516 net.cpp:100] Creating Layer conv0/relu
I0521 19:57:49.010741 15516 net.cpp:434] conv0/relu <- conv0
I0521 19:57:49.010746 15516 net.cpp:395] conv0/relu -> conv0 (in-place)
I0521 19:57:49.011143 15516 net.cpp:150] Setting up conv0/relu
I0521 19:57:49.011155 15516 net.cpp:157] Top shape: 8 32 150 150 (5760000)
I0521 19:57:49.011170 15516 net.cpp:165] Memory required for data: 161280064
I0521 19:57:49.011173 15516 layer_factory.hpp:77] Creating layer conv1/dw
I0521 19:57:49.011184 15516 net.cpp:100] Creating Layer conv1/dw
I0521 19:57:49.011188 15516 net.cpp:434] conv1/dw <- conv0
I0521 19:57:49.011193 15516 net.cpp:408] conv1/dw -> conv1/dw
I0521 19:57:49.011317 15516 net.cpp:150] Setting up conv1/dw
I0521 19:57:49.011325 15516 net.cpp:157] Top shape: 8 32 150 150 (5760000)
I0521 19:57:49.011329 15516 net.cpp:165] Memory required for data: 184320064
I0521 19:57:49.011333 15516 layer_factory.hpp:77] Creating layer conv1/dw/bn
I0521 19:57:49.011339 15516 net.cpp:100] Creating Layer conv1/dw/bn
I0521 19:57:49.011343 15516 net.cpp:434] conv1/dw/bn <- conv1/dw
I0521 19:57:49.011348 15516 net.cpp:395] conv1/dw/bn -> conv1/dw (in-place)
I0521 19:57:49.011474 15516 net.cpp:150] Setting up conv1/dw/bn
I0521 19:57:49.011482 15516 net.cpp:157] Top shape: 8 32 150 150 (5760000)
I0521 19:57:49.011484 15516 net.cpp:165] Memory required for data: 207360064
I0521 19:57:49.011492 15516 layer_factory.hpp:77] Creating layer conv1/dw/scale
I0521 19:57:49.011500 15516 net.cpp:100] Creating Layer conv1/dw/scale
I0521 19:57:49.011503 15516 net.cpp:434] conv1/dw/scale <- conv1/dw
I0521 19:57:49.011508 15516 net.cpp:395] conv1/dw/scale -> conv1/dw (in-place)
I0521 19:57:49.011534 15516 layer_factory.hpp:77] Creating layer conv1/dw/scale
I0521 19:57:49.011631 15516 net.cpp:150] Setting up conv1/dw/scale
I0521 19:57:49.011638 15516 net.cpp:157] Top shape: 8 32 150 150 (5760000)
I0521 19:57:49.011641 15516 net.cpp:165] Memory required for data: 230400064
I0521 19:57:49.011646 15516 layer_factory.hpp:77] Creating layer conv1/dw/relu
I0521 19:57:49.011668 15516 net.cpp:100] Creating Layer conv1/dw/relu
I0521 19:57:49.011672 15516 net.cpp:434] conv1/dw/relu <- conv1/dw
I0521 19:57:49.011677 15516 net.cpp:395] conv1/dw/relu -> conv1/dw (in-place)
I0521 19:57:49.012076 15516 net.cpp:150] Setting up conv1/dw/relu
I0521 19:57:49.012087 15516 net.cpp:157] Top shape: 8 32 150 150 (5760000)
I0521 19:57:49.012101 15516 net.cpp:165] Memory required for data: 253440064
I0521 19:57:49.012105 15516 layer_factory.hpp:77] Creating layer conv1
I0521 19:57:49.012113 15516 net.cpp:100] Creating Layer conv1
I0521 19:57:49.012117 15516 net.cpp:434] conv1 <- conv1/dw
I0521 19:57:49.012122 15516 net.cpp:408] conv1 -> conv1
I0521 19:57:49.013397 15516 net.cpp:150] Setting up conv1
I0521 19:57:49.013409 15516 net.cpp:157] Top shape: 8 64 150 150 (11520000)
I0521 19:57:49.013423 15516 net.cpp:165] Memory required for data: 299520064
I0521 19:57:49.013429 15516 layer_factory.hpp:77] Creating layer conv1/bn
I0521 19:57:49.013434 15516 net.cpp:100] Creating Layer conv1/bn
I0521 19:57:49.013437 15516 net.cpp:434] conv1/bn <- conv1
I0521 19:57:49.013442 15516 net.cpp:395] conv1/bn -> conv1 (in-place)
I0521 19:57:49.013584 15516 net.cpp:150] Setting up conv1/bn
I0521 19:57:49.013592 15516 net.cpp:157] Top shape: 8 64 150 150 (11520000)
I0521 19:57:49.013595 15516 net.cpp:165] Memory required for data: 345600064
I0521 19:57:49.013602 15516 layer_factory.hpp:77] Creating layer conv1/scale
I0521 19:57:49.013608 15516 net.cpp:100] Creating Layer conv1/scale
I0521 19:57:49.013612 15516 net.cpp:434] conv1/scale <- conv1
I0521 19:57:49.013617 15516 net.cpp:395] conv1/scale -> conv1 (in-place)
I0521 19:57:49.013643 15516 layer_factory.hpp:77] Creating layer conv1/scale
I0521 19:57:49.013751 15516 net.cpp:150] Setting up conv1/scale
I0521 19:57:49.013758 15516 net.cpp:157] Top shape: 8 64 150 150 (11520000)
I0521 19:57:49.013761 15516 net.cpp:165] Memory required for data: 391680064
I0521 19:57:49.013769 15516 layer_factory.hpp:77] Creating layer conv1/relu
I0521 19:57:49.013774 15516 net.cpp:100] Creating Layer conv1/relu
I0521 19:57:49.013778 15516 net.cpp:434] conv1/relu <- conv1
I0521 19:57:49.013783 15516 net.cpp:395] conv1/relu -> conv1 (in-place)
I0521 19:57:49.014178 15516 net.cpp:150] Setting up conv1/relu
I0521 19:57:49.014189 15516 net.cpp:157] Top shape: 8 64 150 150 (11520000)
I0521 19:57:49.014202 15516 net.cpp:165] Memory required for data: 437760064
I0521 19:57:49.014206 15516 layer_factory.hpp:77] Creating layer conv2/dw
I0521 19:57:49.014214 15516 net.cpp:100] Creating Layer conv2/dw
I0521 19:57:49.014219 15516 net.cpp:434] conv2/dw <- conv1
I0521 19:57:49.014225 15516 net.cpp:408] conv2/dw -> conv2/dw
I0521 19:57:49.014353 15516 net.cpp:150] Setting up conv2/dw
I0521 19:57:49.014360 15516 net.cpp:157] Top shape: 8 64 75 75 (2880000)
I0521 19:57:49.014364 15516 net.cpp:165] Memory required for data: 449280064
I0521 19:57:49.014369 15516 layer_factory.hpp:77] Creating layer conv2/dw/bn
I0521 19:57:49.014374 15516 net.cpp:100] Creating Layer conv2/dw/bn
I0521 19:57:49.014379 15516 net.cpp:434] conv2/dw/bn <- conv2/dw
I0521 19:57:49.014384 15516 net.cpp:395] conv2/dw/bn -> conv2/dw (in-place)
I0521 19:57:49.014501 15516 net.cpp:150] Setting up conv2/dw/bn
I0521 19:57:49.014508 15516 net.cpp:157] Top shape: 8 64 75 75 (2880000)
I0521 19:57:49.014511 15516 net.cpp:165] Memory required for data: 460800064
I0521 19:57:49.014518 15516 layer_factory.hpp:77] Creating layer conv2/dw/scale
I0521 19:57:49.014524 15516 net.cpp:100] Creating Layer conv2/dw/scale
I0521 19:57:49.014528 15516 net.cpp:434] conv2/dw/scale <- conv2/dw
I0521 19:57:49.014533 15516 net.cpp:395] conv2/dw/scale -> conv2/dw (in-place)
I0521 19:57:49.014560 15516 layer_factory.hpp:77] Creating layer conv2/dw/scale
I0521 19:57:49.014636 15516 net.cpp:150] Setting up conv2/dw/scale
I0521 19:57:49.014642 15516 net.cpp:157] Top shape: 8 64 75 75 (2880000)
I0521 19:57:49.014645 15516 net.cpp:165] Memory required for data: 472320064
I0521 19:57:49.014652 15516 layer_factory.hpp:77] Creating layer conv2/dw/relu
I0521 19:57:49.014657 15516 net.cpp:100] Creating Layer conv2/dw/relu
I0521 19:57:49.014672 15516 net.cpp:434] conv2/dw/relu <- conv2/dw
I0521 19:57:49.014678 15516 net.cpp:395] conv2/dw/relu -> conv2/dw (in-place)
I0521 19:57:49.015259 15516 net.cpp:150] Setting up conv2/dw/relu
I0521 19:57:49.015270 15516 net.cpp:157] Top shape: 8 64 75 75 (2880000)
I0521 19:57:49.015275 15516 net.cpp:165] Memory required for data: 483840064
I0521 19:57:49.015278 15516 layer_factory.hpp:77] Creating layer conv2
I0521 19:57:49.015285 15516 net.cpp:100] Creating Layer conv2
I0521 19:57:49.015290 15516 net.cpp:434] conv2 <- conv2/dw
I0521 19:57:49.015295 15516 net.cpp:408] conv2 -> conv2
I0521 19:57:49.016628 15516 net.cpp:150] Setting up conv2
I0521 19:57:49.016640 15516 net.cpp:157] Top shape: 8 128 75 75 (5760000)
I0521 19:57:49.016655 15516 net.cpp:165] Memory required for data: 506880064
I0521 19:57:49.016660 15516 layer_factory.hpp:77] Creating layer conv2/bn
I0521 19:57:49.016666 15516 net.cpp:100] Creating Layer conv2/bn
I0521 19:57:49.016670 15516 net.cpp:434] conv2/bn <- conv2
I0521 19:57:49.016675 15516 net.cpp:395] conv2/bn -> conv2 (in-place)
I0521 19:57:49.017109 15516 net.cpp:150] Setting up conv2/bn
I0521 19:57:49.017120 15516 net.cpp:157] Top shape: 8 128 75 75 (5760000)
I0521 19:57:49.017134 15516 net.cpp:165] Memory required for data: 529920064
I0521 19:57:49.017141 15516 layer_factory.hpp:77] Creating layer conv2/scale
I0521 19:57:49.017148 15516 net.cpp:100] Creating Layer conv2/scale
I0521 19:57:49.017153 15516 net.cpp:434] conv2/scale <- conv2
I0521 19:57:49.017158 15516 net.cpp:395] conv2/scale -> conv2 (in-place)
I0521 19:57:49.017185 15516 layer_factory.hpp:77] Creating layer conv2/scale
I0521 19:57:49.017262 15516 net.cpp:150] Setting up conv2/scale
I0521 19:57:49.017269 15516 net.cpp:157] Top shape: 8 128 75 75 (5760000)
I0521 19:57:49.017272 15516 net.cpp:165] Memory required for data: 552960064
I0521 19:57:49.017287 15516 layer_factory.hpp:77] Creating layer conv2/relu
I0521 19:57:49.017293 15516 net.cpp:100] Creating Layer conv2/relu
I0521 19:57:49.017298 15516 net.cpp:434] conv2/relu <- conv2
I0521 19:57:49.017302 15516 net.cpp:395] conv2/relu -> conv2 (in-place)
I0521 19:57:49.017722 15516 net.cpp:150] Setting up conv2/relu
I0521 19:57:49.017735 15516 net.cpp:157] Top shape: 8 128 75 75 (5760000)
I0521 19:57:49.017747 15516 net.cpp:165] Memory required for data: 576000064
I0521 19:57:49.017750 15516 layer_factory.hpp:77] Creating layer conv3/dw
I0521 19:57:49.017758 15516 net.cpp:100] Creating Layer conv3/dw
I0521 19:57:49.017762 15516 net.cpp:434] conv3/dw <- conv2
I0521 19:57:49.017767 15516 net.cpp:408] conv3/dw -> conv3/dw
I0521 19:57:49.017897 15516 net.cpp:150] Setting up conv3/dw
I0521 19:57:49.017905 15516 net.cpp:157] Top shape: 8 128 75 75 (5760000)
I0521 19:57:49.017910 15516 net.cpp:165] Memory required for data: 599040064
I0521 19:57:49.017913 15516 layer_factory.hpp:77] Creating layer conv3/dw/bn
I0521 19:57:49.017918 15516 net.cpp:100] Creating Layer conv3/dw/bn
I0521 19:57:49.017922 15516 net.cpp:434] conv3/dw/bn <- conv3/dw
I0521 19:57:49.017926 15516 net.cpp:395] conv3/dw/bn -> conv3/dw (in-place)
I0521 19:57:49.018049 15516 net.cpp:150] Setting up conv3/dw/bn
I0521 19:57:49.018056 15516 net.cpp:157] Top shape: 8 128 75 75 (5760000)
I0521 19:57:49.018059 15516 net.cpp:165] Memory required for data: 622080064
I0521 19:57:49.018070 15516 layer_factory.hpp:77] Creating layer conv3/dw/scale
I0521 19:57:49.018077 15516 net.cpp:100] Creating Layer conv3/dw/scale
I0521 19:57:49.018080 15516 net.cpp:434] conv3/dw/scale <- conv3/dw
I0521 19:57:49.018085 15516 net.cpp:395] conv3/dw/scale -> conv3/dw (in-place)
I0521 19:57:49.018113 15516 layer_factory.hpp:77] Creating layer conv3/dw/scale
I0521 19:57:49.018189 15516 net.cpp:150] Setting up conv3/dw/scale
I0521 19:57:49.018196 15516 net.cpp:157] Top shape: 8 128 75 75 (5760000)
I0521 19:57:49.018200 15516 net.cpp:165] Memory required for data: 645120064
I0521 19:57:49.018204 15516 layer_factory.hpp:77] Creating layer conv3/dw/relu
I0521 19:57:49.018210 15516 net.cpp:100] Creating Layer conv3/dw/relu
I0521 19:57:49.018224 15516 net.cpp:434] conv3/dw/relu <- conv3/dw
I0521 19:57:49.018229 15516 net.cpp:395] conv3/dw/relu -> conv3/dw (in-place)
I0521 19:57:49.018667 15516 net.cpp:150] Setting up conv3/dw/relu
I0521 19:57:49.018682 15516 net.cpp:157] Top shape: 8 128 75 75 (5760000)
I0521 19:57:49.018687 15516 net.cpp:165] Memory required for data: 668160064
I0521 19:57:49.018692 15516 layer_factory.hpp:77] Creating layer conv3
I0521 19:57:49.018699 15516 net.cpp:100] Creating Layer conv3
I0521 19:57:49.018703 15516 net.cpp:434] conv3 <- conv3/dw
I0521 19:57:49.018710 15516 net.cpp:408] conv3 -> conv3
I0521 19:57:49.020740 15516 net.cpp:150] Setting up conv3
I0521 19:57:49.020751 15516 net.cpp:157] Top shape: 8 128 75 75 (5760000)
I0521 19:57:49.020754 15516 net.cpp:165] Memory required for data: 691200064
I0521 19:57:49.020761 15516 layer_factory.hpp:77] Creating layer conv3/bn
I0521 19:57:49.020766 15516 net.cpp:100] Creating Layer conv3/bn
I0521 19:57:49.020771 15516 net.cpp:434] conv3/bn <- conv3
I0521 19:57:49.020776 15516 net.cpp:395] conv3/bn -> conv3 (in-place)
I0521 19:57:49.020903 15516 net.cpp:150] Setting up conv3/bn
I0521 19:57:49.020910 15516 net.cpp:157] Top shape: 8 128 75 75 (5760000)
I0521 19:57:49.020915 15516 net.cpp:165] Memory required for data: 714240064
I0521 19:57:49.020920 15516 layer_factory.hpp:77] Creating layer conv3/scale
I0521 19:57:49.020929 15516 net.cpp:100] Creating Layer conv3/scale
I0521 19:57:49.020934 15516 net.cpp:434] conv3/scale <- conv3
I0521 19:57:49.020941 15516 net.cpp:395] conv3/scale -> conv3 (in-place)
I0521 19:57:49.020970 15516 layer_factory.hpp:77] Creating layer conv3/scale
I0521 19:57:49.021049 15516 net.cpp:150] Setting up conv3/scale
I0521 19:57:49.021055 15516 net.cpp:157] Top shape: 8 128 75 75 (5760000)
I0521 19:57:49.021059 15516 net.cpp:165] Memory required for data: 737280064
I0521 19:57:49.021064 15516 layer_factory.hpp:77] Creating layer conv3/relu
I0521 19:57:49.021070 15516 net.cpp:100] Creating Layer conv3/relu
I0521 19:57:49.021073 15516 net.cpp:434] conv3/relu <- conv3
I0521 19:57:49.021078 15516 net.cpp:395] conv3/relu -> conv3 (in-place)
I0521 19:57:49.021497 15516 net.cpp:150] Setting up conv3/relu
I0521 19:57:49.021508 15516 net.cpp:157] Top shape: 8 128 75 75 (5760000)
I0521 19:57:49.021512 15516 net.cpp:165] Memory required for data: 760320064
I0521 19:57:49.021515 15516 layer_factory.hpp:77] Creating layer conv4/dw
I0521 19:57:49.021524 15516 net.cpp:100] Creating Layer conv4/dw
I0521 19:57:49.021528 15516 net.cpp:434] conv4/dw <- conv3
I0521 19:57:49.021534 15516 net.cpp:408] conv4/dw -> conv4/dw
I0521 19:57:49.021675 15516 net.cpp:150] Setting up conv4/dw
I0521 19:57:49.021684 15516 net.cpp:157] Top shape: 8 128 38 38 (1478656)
I0521 19:57:49.021687 15516 net.cpp:165] Memory required for data: 766234688
I0521 19:57:49.021708 15516 layer_factory.hpp:77] Creating layer conv4/dw/bn
I0521 19:57:49.021713 15516 net.cpp:100] Creating Layer conv4/dw/bn
I0521 19:57:49.021716 15516 net.cpp:434] conv4/dw/bn <- conv4/dw
I0521 19:57:49.021721 15516 net.cpp:395] conv4/dw/bn -> conv4/dw (in-place)
I0521 19:57:49.021844 15516 net.cpp:150] Setting up conv4/dw/bn
I0521 19:57:49.021852 15516 net.cpp:157] Top shape: 8 128 38 38 (1478656)
I0521 19:57:49.021855 15516 net.cpp:165] Memory required for data: 772149312
I0521 19:57:49.021862 15516 layer_factory.hpp:77] Creating layer conv4/dw/scale
I0521 19:57:49.021878 15516 net.cpp:100] Creating Layer conv4/dw/scale
I0521 19:57:49.021881 15516 net.cpp:434] conv4/dw/scale <- conv4/dw
I0521 19:57:49.021886 15516 net.cpp:395] conv4/dw/scale -> conv4/dw (in-place)
I0521 19:57:49.021914 15516 layer_factory.hpp:77] Creating layer conv4/dw/scale
I0521 19:57:49.021984 15516 net.cpp:150] Setting up conv4/dw/scale
I0521 19:57:49.021992 15516 net.cpp:157] Top shape: 8 128 38 38 (1478656)
I0521 19:57:49.021996 15516 net.cpp:165] Memory required for data: 778063936
I0521 19:57:49.022001 15516 layer_factory.hpp:77] Creating layer conv4/dw/relu
I0521 19:57:49.022006 15516 net.cpp:100] Creating Layer conv4/dw/relu
I0521 19:57:49.022018 15516 net.cpp:434] conv4/dw/relu <- conv4/dw
I0521 19:57:49.022024 15516 net.cpp:395] conv4/dw/relu -> conv4/dw (in-place)
I0521 19:57:49.022840 15516 net.cpp:150] Setting up conv4/dw/relu
I0521 19:57:49.022852 15516 net.cpp:157] Top shape: 8 128 38 38 (1478656)
I0521 19:57:49.022855 15516 net.cpp:165] Memory required for data: 783978560
I0521 19:57:49.022859 15516 layer_factory.hpp:77] Creating layer conv4
I0521 19:57:49.022867 15516 net.cpp:100] Creating Layer conv4
I0521 19:57:49.022871 15516 net.cpp:434] conv4 <- conv4/dw
I0521 19:57:49.022877 15516 net.cpp:408] conv4 -> conv4
I0521 19:57:49.024448 15516 net.cpp:150] Setting up conv4
I0521 19:57:49.024461 15516 net.cpp:157] Top shape: 8 256 38 38 (2957312)
I0521 19:57:49.024463 15516 net.cpp:165] Memory required for data: 795807808
I0521 19:57:49.024469 15516 layer_factory.hpp:77] Creating layer conv4/bn
I0521 19:57:49.024475 15516 net.cpp:100] Creating Layer conv4/bn
I0521 19:57:49.024478 15516 net.cpp:434] conv4/bn <- conv4
I0521 19:57:49.024493 15516 net.cpp:395] conv4/bn -> conv4 (in-place)
I0521 19:57:49.024623 15516 net.cpp:150] Setting up conv4/bn
I0521 19:57:49.024631 15516 net.cpp:157] Top shape: 8 256 38 38 (2957312)
I0521 19:57:49.024634 15516 net.cpp:165] Memory required for data: 807637056
I0521 19:57:49.024641 15516 layer_factory.hpp:77] Creating layer conv4/scale
I0521 19:57:49.024647 15516 net.cpp:100] Creating Layer conv4/scale
I0521 19:57:49.024652 15516 net.cpp:434] conv4/scale <- conv4
I0521 19:57:49.024657 15516 net.cpp:395] conv4/scale -> conv4 (in-place)
I0521 19:57:49.024688 15516 layer_factory.hpp:77] Creating layer conv4/scale
I0521 19:57:49.024760 15516 net.cpp:150] Setting up conv4/scale
I0521 19:57:49.024768 15516 net.cpp:157] Top shape: 8 256 38 38 (2957312)
I0521 19:57:49.024771 15516 net.cpp:165] Memory required for data: 819466304
I0521 19:57:49.024776 15516 layer_factory.hpp:77] Creating layer conv4/relu
I0521 19:57:49.024782 15516 net.cpp:100] Creating Layer conv4/relu
I0521 19:57:49.024785 15516 net.cpp:434] conv4/relu <- conv4
I0521 19:57:49.024791 15516 net.cpp:395] conv4/relu -> conv4 (in-place)
I0521 19:57:49.025215 15516 net.cpp:150] Setting up conv4/relu
I0521 19:57:49.025226 15516 net.cpp:157] Top shape: 8 256 38 38 (2957312)
I0521 19:57:49.025229 15516 net.cpp:165] Memory required for data: 831295552
I0521 19:57:49.025233 15516 layer_factory.hpp:77] Creating layer conv5/dw
I0521 19:57:49.025241 15516 net.cpp:100] Creating Layer conv5/dw
I0521 19:57:49.025245 15516 net.cpp:434] conv5/dw <- conv4
I0521 19:57:49.025260 15516 net.cpp:408] conv5/dw -> conv5/dw
I0521 19:57:49.025410 15516 net.cpp:150] Setting up conv5/dw
I0521 19:57:49.025419 15516 net.cpp:157] Top shape: 8 256 38 38 (2957312)
I0521 19:57:49.025422 15516 net.cpp:165] Memory required for data: 843124800
I0521 19:57:49.025426 15516 layer_factory.hpp:77] Creating layer conv5/dw/bn
I0521 19:57:49.025432 15516 net.cpp:100] Creating Layer conv5/dw/bn
I0521 19:57:49.025436 15516 net.cpp:434] conv5/dw/bn <- conv5/dw
I0521 19:57:49.025441 15516 net.cpp:395] conv5/dw/bn -> conv5/dw (in-place)
I0521 19:57:49.025560 15516 net.cpp:150] Setting up conv5/dw/bn
I0521 19:57:49.025568 15516 net.cpp:157] Top shape: 8 256 38 38 (2957312)
I0521 19:57:49.025570 15516 net.cpp:165] Memory required for data: 854954048
I0521 19:57:49.025576 15516 layer_factory.hpp:77] Creating layer conv5/dw/scale
I0521 19:57:49.025583 15516 net.cpp:100] Creating Layer conv5/dw/scale
I0521 19:57:49.025586 15516 net.cpp:434] conv5/dw/scale <- conv5/dw
I0521 19:57:49.025593 15516 net.cpp:395] conv5/dw/scale -> conv5/dw (in-place)
I0521 19:57:49.025621 15516 layer_factory.hpp:77] Creating layer conv5/dw/scale
I0521 19:57:49.025703 15516 net.cpp:150] Setting up conv5/dw/scale
I0521 19:57:49.025714 15516 net.cpp:157] Top shape: 8 256 38 38 (2957312)
I0521 19:57:49.025720 15516 net.cpp:165] Memory required for data: 866783296
I0521 19:57:49.025728 15516 layer_factory.hpp:77] Creating layer conv5/dw/relu
I0521 19:57:49.025735 15516 net.cpp:100] Creating Layer conv5/dw/relu
I0521 19:57:49.025756 15516 net.cpp:434] conv5/dw/relu <- conv5/dw
I0521 19:57:49.025761 15516 net.cpp:395] conv5/dw/relu -> conv5/dw (in-place)
I0521 19:57:49.026185 15516 net.cpp:150] Setting up conv5/dw/relu
I0521 19:57:49.026206 15516 net.cpp:157] Top shape: 8 256 38 38 (2957312)
I0521 19:57:49.026211 15516 net.cpp:165] Memory required for data: 878612544
I0521 19:57:49.026213 15516 layer_factory.hpp:77] Creating layer conv5
I0521 19:57:49.026222 15516 net.cpp:100] Creating Layer conv5
I0521 19:57:49.026226 15516 net.cpp:434] conv5 <- conv5/dw
I0521 19:57:49.026232 15516 net.cpp:408] conv5 -> conv5
I0521 19:57:49.028115 15516 net.cpp:150] Setting up conv5
I0521 19:57:49.028126 15516 net.cpp:157] Top shape: 8 256 38 38 (2957312)
I0521 19:57:49.028131 15516 net.cpp:165] Memory required for data: 890441792
I0521 19:57:49.028136 15516 layer_factory.hpp:77] Creating layer conv5/bn
I0521 19:57:49.028141 15516 net.cpp:100] Creating Layer conv5/bn
I0521 19:57:49.028144 15516 net.cpp:434] conv5/bn <- conv5
I0521 19:57:49.028148 15516 net.cpp:395] conv5/bn -> conv5 (in-place)
I0521 19:57:49.028291 15516 net.cpp:150] Setting up conv5/bn
I0521 19:57:49.028300 15516 net.cpp:157] Top shape: 8 256 38 38 (2957312)
I0521 19:57:49.028302 15516 net.cpp:165] Memory required for data: 902271040
I0521 19:57:49.028308 15516 layer_factory.hpp:77] Creating layer conv5/scale
I0521 19:57:49.028316 15516 net.cpp:100] Creating Layer conv5/scale
I0521 19:57:49.028319 15516 net.cpp:434] conv5/scale <- conv5
I0521 19:57:49.028324 15516 net.cpp:395] conv5/scale -> conv5 (in-place)
I0521 19:57:49.028355 15516 layer_factory.hpp:77] Creating layer conv5/scale
I0521 19:57:49.028429 15516 net.cpp:150] Setting up conv5/scale
I0521 19:57:49.028435 15516 net.cpp:157] Top shape: 8 256 38 38 (2957312)
I0521 19:57:49.028439 15516 net.cpp:165] Memory required for data: 914100288
I0521 19:57:49.028450 15516 layer_factory.hpp:77] Creating layer conv5/relu
I0521 19:57:49.028455 15516 net.cpp:100] Creating Layer conv5/relu
I0521 19:57:49.028460 15516 net.cpp:434] conv5/relu <- conv5
I0521 19:57:49.028465 15516 net.cpp:395] conv5/relu -> conv5 (in-place)
I0521 19:57:49.028894 15516 net.cpp:150] Setting up conv5/relu
I0521 19:57:49.028905 15516 net.cpp:157] Top shape: 8 256 38 38 (2957312)
I0521 19:57:49.028919 15516 net.cpp:165] Memory required for data: 925929536
I0521 19:57:49.028923 15516 layer_factory.hpp:77] Creating layer conv6/dw
I0521 19:57:49.028931 15516 net.cpp:100] Creating Layer conv6/dw
I0521 19:57:49.028935 15516 net.cpp:434] conv6/dw <- conv5
I0521 19:57:49.028942 15516 net.cpp:408] conv6/dw -> conv6/dw
I0521 19:57:49.029091 15516 net.cpp:150] Setting up conv6/dw
I0521 19:57:49.029099 15516 net.cpp:157] Top shape: 8 256 19 19 (739328)
I0521 19:57:49.029103 15516 net.cpp:165] Memory required for data: 928886848
I0521 19:57:49.029107 15516 layer_factory.hpp:77] Creating layer conv6/dw/bn
I0521 19:57:49.029114 15516 net.cpp:100] Creating Layer conv6/dw/bn
I0521 19:57:49.029119 15516 net.cpp:434] conv6/dw/bn <- conv6/dw
I0521 19:57:49.029124 15516 net.cpp:395] conv6/dw/bn -> conv6/dw (in-place)
I0521 19:57:49.029244 15516 net.cpp:150] Setting up conv6/dw/bn
I0521 19:57:49.029251 15516 net.cpp:157] Top shape: 8 256 19 19 (739328)
I0521 19:57:49.029254 15516 net.cpp:165] Memory required for data: 931844160
I0521 19:57:49.029261 15516 layer_factory.hpp:77] Creating layer conv6/dw/scale
I0521 19:57:49.029268 15516 net.cpp:100] Creating Layer conv6/dw/scale
I0521 19:57:49.029273 15516 net.cpp:434] conv6/dw/scale <- conv6/dw
I0521 19:57:49.029278 15516 net.cpp:395] conv6/dw/scale -> conv6/dw (in-place)
I0521 19:57:49.029304 15516 layer_factory.hpp:77] Creating layer conv6/dw/scale
I0521 19:57:49.029377 15516 net.cpp:150] Setting up conv6/dw/scale
I0521 19:57:49.029384 15516 net.cpp:157] Top shape: 8 256 19 19 (739328)
I0521 19:57:49.029387 15516 net.cpp:165] Memory required for data: 934801472
I0521 19:57:49.029393 15516 layer_factory.hpp:77] Creating layer conv6/dw/relu
I0521 19:57:49.029398 15516 net.cpp:100] Creating Layer conv6/dw/relu
I0521 19:57:49.029403 15516 net.cpp:434] conv6/dw/relu <- conv6/dw
I0521 19:57:49.029415 15516 net.cpp:395] conv6/dw/relu -> conv6/dw (in-place)
I0521 19:57:49.030097 15516 net.cpp:150] Setting up conv6/dw/relu
I0521 19:57:49.030108 15516 net.cpp:157] Top shape: 8 256 19 19 (739328)
I0521 19:57:49.030122 15516 net.cpp:165] Memory required for data: 937758784
I0521 19:57:49.030126 15516 layer_factory.hpp:77] Creating layer conv6
I0521 19:57:49.030133 15516 net.cpp:100] Creating Layer conv6
I0521 19:57:49.030138 15516 net.cpp:434] conv6 <- conv6/dw
I0521 19:57:49.030144 15516 net.cpp:408] conv6 -> conv6
I0521 19:57:49.032691 15516 net.cpp:150] Setting up conv6
I0521 19:57:49.032703 15516 net.cpp:157] Top shape: 8 512 19 19 (1478656)
I0521 19:57:49.032707 15516 net.cpp:165] Memory required for data: 943673408
I0521 19:57:49.032712 15516 layer_factory.hpp:77] Creating layer conv6/bn
I0521 19:57:49.032718 15516 net.cpp:100] Creating Layer conv6/bn
I0521 19:57:49.032722 15516 net.cpp:434] conv6/bn <- conv6
I0521 19:57:49.032738 15516 net.cpp:395] conv6/bn -> conv6 (in-place)
I0521 19:57:49.032868 15516 net.cpp:150] Setting up conv6/bn
I0521 19:57:49.032877 15516 net.cpp:157] Top shape: 8 512 19 19 (1478656)
I0521 19:57:49.032881 15516 net.cpp:165] Memory required for data: 949588032
I0521 19:57:49.032886 15516 layer_factory.hpp:77] Creating layer conv6/scale
I0521 19:57:49.032892 15516 net.cpp:100] Creating Layer conv6/scale
I0521 19:57:49.032896 15516 net.cpp:434] conv6/scale <- conv6
I0521 19:57:49.032902 15516 net.cpp:395] conv6/scale -> conv6 (in-place)
I0521 19:57:49.032929 15516 layer_factory.hpp:77] Creating layer conv6/scale
I0521 19:57:49.033006 15516 net.cpp:150] Setting up conv6/scale
I0521 19:57:49.033013 15516 net.cpp:157] Top shape: 8 512 19 19 (1478656)
I0521 19:57:49.033016 15516 net.cpp:165] Memory required for data: 955502656
I0521 19:57:49.033022 15516 layer_factory.hpp:77] Creating layer conv6/relu
I0521 19:57:49.033027 15516 net.cpp:100] Creating Layer conv6/relu
I0521 19:57:49.033031 15516 net.cpp:434] conv6/relu <- conv6
I0521 19:57:49.033035 15516 net.cpp:395] conv6/relu -> conv6 (in-place)
I0521 19:57:49.033545 15516 net.cpp:150] Setting up conv6/relu
I0521 19:57:49.033567 15516 net.cpp:157] Top shape: 8 512 19 19 (1478656)
I0521 19:57:49.033571 15516 net.cpp:165] Memory required for data: 961417280
I0521 19:57:49.033574 15516 layer_factory.hpp:77] Creating layer conv7/dw
I0521 19:57:49.033583 15516 net.cpp:100] Creating Layer conv7/dw
I0521 19:57:49.033587 15516 net.cpp:434] conv7/dw <- conv6
I0521 19:57:49.033593 15516 net.cpp:408] conv7/dw -> conv7/dw
I0521 19:57:49.033784 15516 net.cpp:150] Setting up conv7/dw
I0521 19:57:49.033793 15516 net.cpp:157] Top shape: 8 512 19 19 (1478656)
I0521 19:57:49.033797 15516 net.cpp:165] Memory required for data: 967331904
I0521 19:57:49.033802 15516 layer_factory.hpp:77] Creating layer conv7/dw/bn
I0521 19:57:49.033807 15516 net.cpp:100] Creating Layer conv7/dw/bn
I0521 19:57:49.033812 15516 net.cpp:434] conv7/dw/bn <- conv7/dw
I0521 19:57:49.033816 15516 net.cpp:395] conv7/dw/bn -> conv7/dw (in-place)
I0521 19:57:49.033943 15516 net.cpp:150] Setting up conv7/dw/bn
I0521 19:57:49.033951 15516 net.cpp:157] Top shape: 8 512 19 19 (1478656)
I0521 19:57:49.033953 15516 net.cpp:165] Memory required for data: 973246528
I0521 19:57:49.033959 15516 layer_factory.hpp:77] Creating layer conv7/dw/scale
I0521 19:57:49.033967 15516 net.cpp:100] Creating Layer conv7/dw/scale
I0521 19:57:49.033974 15516 net.cpp:434] conv7/dw/scale <- conv7/dw
I0521 19:57:49.033979 15516 net.cpp:395] conv7/dw/scale -> conv7/dw (in-place)
I0521 19:57:49.034013 15516 layer_factory.hpp:77] Creating layer conv7/dw/scale
I0521 19:57:49.034086 15516 net.cpp:150] Setting up conv7/dw/scale
I0521 19:57:49.034093 15516 net.cpp:157] Top shape: 8 512 19 19 (1478656)
I0521 19:57:49.034097 15516 net.cpp:165] Memory required for data: 979161152
I0521 19:57:49.034102 15516 layer_factory.hpp:77] Creating layer conv7/dw/relu
I0521 19:57:49.034109 15516 net.cpp:100] Creating Layer conv7/dw/relu
I0521 19:57:49.034114 15516 net.cpp:434] conv7/dw/relu <- conv7/dw
I0521 19:57:49.034130 15516 net.cpp:395] conv7/dw/relu -> conv7/dw (in-place)
I0521 19:57:49.034557 15516 net.cpp:150] Setting up conv7/dw/relu
I0521 19:57:49.034569 15516 net.cpp:157] Top shape: 8 512 19 19 (1478656)
I0521 19:57:49.034574 15516 net.cpp:165] Memory required for data: 985075776
I0521 19:57:49.034576 15516 layer_factory.hpp:77] Creating layer conv7
I0521 19:57:49.034585 15516 net.cpp:100] Creating Layer conv7
I0521 19:57:49.034588 15516 net.cpp:434] conv7 <- conv7/dw
I0521 19:57:49.034603 15516 net.cpp:408] conv7 -> conv7
I0521 19:57:49.038285 15516 net.cpp:150] Setting up conv7
I0521 19:57:49.038297 15516 net.cpp:157] Top shape: 8 512 19 19 (1478656)
I0521 19:57:49.038301 15516 net.cpp:165] Memory required for data: 990990400
I0521 19:57:49.038306 15516 layer_factory.hpp:77] Creating layer conv7/bn
I0521 19:57:49.038312 15516 net.cpp:100] Creating Layer conv7/bn
I0521 19:57:49.038316 15516 net.cpp:434] conv7/bn <- conv7
I0521 19:57:49.038321 15516 net.cpp:395] conv7/bn -> conv7 (in-place)
I0521 19:57:49.038455 15516 net.cpp:150] Setting up conv7/bn
I0521 19:57:49.038462 15516 net.cpp:157] Top shape: 8 512 19 19 (1478656)
I0521 19:57:49.038466 15516 net.cpp:165] Memory required for data: 996905024
I0521 19:57:49.038472 15516 layer_factory.hpp:77] Creating layer conv7/scale
I0521 19:57:49.038478 15516 net.cpp:100] Creating Layer conv7/scale
I0521 19:57:49.038481 15516 net.cpp:434] conv7/scale <- conv7
I0521 19:57:49.038486 15516 net.cpp:395] conv7/scale -> conv7 (in-place)
I0521 19:57:49.038516 15516 layer_factory.hpp:77] Creating layer conv7/scale
I0521 19:57:49.038589 15516 net.cpp:150] Setting up conv7/scale
I0521 19:57:49.038597 15516 net.cpp:157] Top shape: 8 512 19 19 (1478656)
I0521 19:57:49.038600 15516 net.cpp:165] Memory required for data: 1002819648
I0521 19:57:49.038605 15516 layer_factory.hpp:77] Creating layer conv7/relu
I0521 19:57:49.038610 15516 net.cpp:100] Creating Layer conv7/relu
I0521 19:57:49.038614 15516 net.cpp:434] conv7/relu <- conv7
I0521 19:57:49.038619 15516 net.cpp:395] conv7/relu -> conv7 (in-place)
I0521 19:57:49.039044 15516 net.cpp:150] Setting up conv7/relu
I0521 19:57:49.039057 15516 net.cpp:157] Top shape: 8 512 19 19 (1478656)
I0521 19:57:49.039070 15516 net.cpp:165] Memory required for data: 1008734272
I0521 19:57:49.039075 15516 layer_factory.hpp:77] Creating layer conv8/dw
I0521 19:57:49.039083 15516 net.cpp:100] Creating Layer conv8/dw
I0521 19:57:49.039088 15516 net.cpp:434] conv8/dw <- conv7
I0521 19:57:49.039093 15516 net.cpp:408] conv8/dw -> conv8/dw
I0521 19:57:49.039260 15516 net.cpp:150] Setting up conv8/dw
I0521 19:57:49.039268 15516 net.cpp:157] Top shape: 8 512 19 19 (1478656)
I0521 19:57:49.039271 15516 net.cpp:165] Memory required for data: 1014648896
I0521 19:57:49.039276 15516 layer_factory.hpp:77] Creating layer conv8/dw/bn
I0521 19:57:49.039281 15516 net.cpp:100] Creating Layer conv8/dw/bn
I0521 19:57:49.039284 15516 net.cpp:434] conv8/dw/bn <- conv8/dw
I0521 19:57:49.039289 15516 net.cpp:395] conv8/dw/bn -> conv8/dw (in-place)
I0521 19:57:49.039423 15516 net.cpp:150] Setting up conv8/dw/bn
I0521 19:57:49.039430 15516 net.cpp:157] Top shape: 8 512 19 19 (1478656)
I0521 19:57:49.039434 15516 net.cpp:165] Memory required for data: 1020563520
I0521 19:57:49.039439 15516 layer_factory.hpp:77] Creating layer conv8/dw/scale
I0521 19:57:49.039451 15516 net.cpp:100] Creating Layer conv8/dw/scale
I0521 19:57:49.039459 15516 net.cpp:434] conv8/dw/scale <- conv8/dw
I0521 19:57:49.039464 15516 net.cpp:395] conv8/dw/scale -> conv8/dw (in-place)
I0521 19:57:49.039494 15516 layer_factory.hpp:77] Creating layer conv8/dw/scale
I0521 19:57:49.039574 15516 net.cpp:150] Setting up conv8/dw/scale
I0521 19:57:49.039582 15516 net.cpp:157] Top shape: 8 512 19 19 (1478656)
I0521 19:57:49.039585 15516 net.cpp:165] Memory required for data: 1026478144
I0521 19:57:49.039592 15516 layer_factory.hpp:77] Creating layer conv8/dw/relu
I0521 19:57:49.039599 15516 net.cpp:100] Creating Layer conv8/dw/relu
I0521 19:57:49.039603 15516 net.cpp:434] conv8/dw/relu <- conv8/dw
I0521 19:57:49.039616 15516 net.cpp:395] conv8/dw/relu -> conv8/dw (in-place)
I0521 19:57:49.039985 15516 net.cpp:150] Setting up conv8/dw/relu
I0521 19:57:49.039999 15516 net.cpp:157] Top shape: 8 512 19 19 (1478656)
I0521 19:57:49.040001 15516 net.cpp:165] Memory required for data: 1032392768
I0521 19:57:49.040005 15516 layer_factory.hpp:77] Creating layer conv8
I0521 19:57:49.040014 15516 net.cpp:100] Creating Layer conv8
I0521 19:57:49.040019 15516 net.cpp:434] conv8 <- conv8/dw
I0521 19:57:49.040024 15516 net.cpp:408] conv8 -> conv8
I0521 19:57:49.044041 15516 net.cpp:150] Setting up conv8
I0521 19:57:49.044054 15516 net.cpp:157] Top shape: 8 512 19 19 (1478656)
I0521 19:57:49.044056 15516 net.cpp:165] Memory required for data: 1038307392
I0521 19:57:49.044062 15516 layer_factory.hpp:77] Creating layer conv8/bn
I0521 19:57:49.044068 15516 net.cpp:100] Creating Layer conv8/bn
I0521 19:57:49.044072 15516 net.cpp:434] conv8/bn <- conv8
I0521 19:57:49.044086 15516 net.cpp:395] conv8/bn -> conv8 (in-place)
I0521 19:57:49.044219 15516 net.cpp:150] Setting up conv8/bn
I0521 19:57:49.044227 15516 net.cpp:157] Top shape: 8 512 19 19 (1478656)
I0521 19:57:49.044230 15516 net.cpp:165] Memory required for data: 1044222016
I0521 19:57:49.044236 15516 layer_factory.hpp:77] Creating layer conv8/scale
I0521 19:57:49.044242 15516 net.cpp:100] Creating Layer conv8/scale
I0521 19:57:49.044246 15516 net.cpp:434] conv8/scale <- conv8
I0521 19:57:49.044250 15516 net.cpp:395] conv8/scale -> conv8 (in-place)
I0521 19:57:49.044282 15516 layer_factory.hpp:77] Creating layer conv8/scale
I0521 19:57:49.044354 15516 net.cpp:150] Setting up conv8/scale
I0521 19:57:49.044363 15516 net.cpp:157] Top shape: 8 512 19 19 (1478656)
I0521 19:57:49.044365 15516 net.cpp:165] Memory required for data: 1050136640
I0521 19:57:49.044370 15516 layer_factory.hpp:77] Creating layer conv8/relu
I0521 19:57:49.044375 15516 net.cpp:100] Creating Layer conv8/relu
I0521 19:57:49.044380 15516 net.cpp:434] conv8/relu <- conv8
I0521 19:57:49.044386 15516 net.cpp:395] conv8/relu -> conv8 (in-place)
I0521 19:57:49.044827 15516 net.cpp:150] Setting up conv8/relu
I0521 19:57:49.044839 15516 net.cpp:157] Top shape: 8 512 19 19 (1478656)
I0521 19:57:49.044843 15516 net.cpp:165] Memory required for data: 1056051264
I0521 19:57:49.044847 15516 layer_factory.hpp:77] Creating layer conv9/dw
I0521 19:57:49.044855 15516 net.cpp:100] Creating Layer conv9/dw
I0521 19:57:49.044860 15516 net.cpp:434] conv9/dw <- conv8
I0521 19:57:49.044867 15516 net.cpp:408] conv9/dw -> conv9/dw
I0521 19:57:49.045037 15516 net.cpp:150] Setting up conv9/dw
I0521 19:57:49.045044 15516 net.cpp:157] Top shape: 8 512 19 19 (1478656)
I0521 19:57:49.045047 15516 net.cpp:165] Memory required for data: 1061965888
I0521 19:57:49.045053 15516 layer_factory.hpp:77] Creating layer conv9/dw/bn
I0521 19:57:49.045058 15516 net.cpp:100] Creating Layer conv9/dw/bn
I0521 19:57:49.045063 15516 net.cpp:434] conv9/dw/bn <- conv9/dw
I0521 19:57:49.045068 15516 net.cpp:395] conv9/dw/bn -> conv9/dw (in-place)
I0521 19:57:49.045192 15516 net.cpp:150] Setting up conv9/dw/bn
I0521 19:57:49.045199 15516 net.cpp:157] Top shape: 8 512 19 19 (1478656)
I0521 19:57:49.045202 15516 net.cpp:165] Memory required for data: 1067880512
I0521 19:57:49.045208 15516 layer_factory.hpp:77] Creating layer conv9/dw/scale
I0521 19:57:49.045214 15516 net.cpp:100] Creating Layer conv9/dw/scale
I0521 19:57:49.045219 15516 net.cpp:434] conv9/dw/scale <- conv9/dw
I0521 19:57:49.045224 15516 net.cpp:395] conv9/dw/scale -> conv9/dw (in-place)
I0521 19:57:49.045253 15516 layer_factory.hpp:77] Creating layer conv9/dw/scale
I0521 19:57:49.045325 15516 net.cpp:150] Setting up conv9/dw/scale
I0521 19:57:49.045333 15516 net.cpp:157] Top shape: 8 512 19 19 (1478656)
I0521 19:57:49.045337 15516 net.cpp:165] Memory required for data: 1073795136
I0521 19:57:49.045342 15516 layer_factory.hpp:77] Creating layer conv9/dw/relu
I0521 19:57:49.045347 15516 net.cpp:100] Creating Layer conv9/dw/relu
I0521 19:57:49.045352 15516 net.cpp:434] conv9/dw/relu <- conv9/dw
I0521 19:57:49.045364 15516 net.cpp:395] conv9/dw/relu -> conv9/dw (in-place)
I0521 19:57:49.045711 15516 net.cpp:150] Setting up conv9/dw/relu
I0521 19:57:49.045725 15516 net.cpp:157] Top shape: 8 512 19 19 (1478656)
I0521 19:57:49.045729 15516 net.cpp:165] Memory required for data: 1079709760
I0521 19:57:49.045732 15516 layer_factory.hpp:77] Creating layer conv9
I0521 19:57:49.045740 15516 net.cpp:100] Creating Layer conv9
I0521 19:57:49.045744 15516 net.cpp:434] conv9 <- conv9/dw
I0521 19:57:49.045750 15516 net.cpp:408] conv9 -> conv9
I0521 19:57:49.049371 15516 net.cpp:150] Setting up conv9
I0521 19:57:49.049382 15516 net.cpp:157] Top shape: 8 512 19 19 (1478656)
I0521 19:57:49.049397 15516 net.cpp:165] Memory required for data: 1085624384
I0521 19:57:49.049403 15516 layer_factory.hpp:77] Creating layer conv9/bn
I0521 19:57:49.049410 15516 net.cpp:100] Creating Layer conv9/bn
I0521 19:57:49.049414 15516 net.cpp:434] conv9/bn <- conv9
I0521 19:57:49.049419 15516 net.cpp:395] conv9/bn -> conv9 (in-place)
I0521 19:57:49.049551 15516 net.cpp:150] Setting up conv9/bn
I0521 19:57:49.049559 15516 net.cpp:157] Top shape: 8 512 19 19 (1478656)
I0521 19:57:49.049562 15516 net.cpp:165] Memory required for data: 1091539008
I0521 19:57:49.049569 15516 layer_factory.hpp:77] Creating layer conv9/scale
I0521 19:57:49.049590 15516 net.cpp:100] Creating Layer conv9/scale
I0521 19:57:49.049594 15516 net.cpp:434] conv9/scale <- conv9
I0521 19:57:49.049600 15516 net.cpp:395] conv9/scale -> conv9 (in-place)
I0521 19:57:49.049631 15516 layer_factory.hpp:77] Creating layer conv9/scale
I0521 19:57:49.049724 15516 net.cpp:150] Setting up conv9/scale
I0521 19:57:49.049733 15516 net.cpp:157] Top shape: 8 512 19 19 (1478656)
I0521 19:57:49.049737 15516 net.cpp:165] Memory required for data: 1097453632
I0521 19:57:49.049742 15516 layer_factory.hpp:77] Creating layer conv9/relu
I0521 19:57:49.049747 15516 net.cpp:100] Creating Layer conv9/relu
I0521 19:57:49.049751 15516 net.cpp:434] conv9/relu <- conv9
I0521 19:57:49.049757 15516 net.cpp:395] conv9/relu -> conv9 (in-place)
I0521 19:57:49.050185 15516 net.cpp:150] Setting up conv9/relu
I0521 19:57:49.050197 15516 net.cpp:157] Top shape: 8 512 19 19 (1478656)
I0521 19:57:49.050201 15516 net.cpp:165] Memory required for data: 1103368256
I0521 19:57:49.050204 15516 layer_factory.hpp:77] Creating layer conv10/dw
I0521 19:57:49.050213 15516 net.cpp:100] Creating Layer conv10/dw
I0521 19:57:49.050217 15516 net.cpp:434] conv10/dw <- conv9
I0521 19:57:49.050223 15516 net.cpp:408] conv10/dw -> conv10/dw
I0521 19:57:49.050395 15516 net.cpp:150] Setting up conv10/dw
I0521 19:57:49.050403 15516 net.cpp:157] Top shape: 8 512 19 19 (1478656)
I0521 19:57:49.050406 15516 net.cpp:165] Memory required for data: 1109282880
I0521 19:57:49.050411 15516 layer_factory.hpp:77] Creating layer conv10/dw/bn
I0521 19:57:49.050417 15516 net.cpp:100] Creating Layer conv10/dw/bn
I0521 19:57:49.050420 15516 net.cpp:434] conv10/dw/bn <- conv10/dw
I0521 19:57:49.050426 15516 net.cpp:395] conv10/dw/bn -> conv10/dw (in-place)
I0521 19:57:49.050549 15516 net.cpp:150] Setting up conv10/dw/bn
I0521 19:57:49.050556 15516 net.cpp:157] Top shape: 8 512 19 19 (1478656)
I0521 19:57:49.050559 15516 net.cpp:165] Memory required for data: 1115197504
I0521 19:57:49.050565 15516 layer_factory.hpp:77] Creating layer conv10/dw/scale
I0521 19:57:49.050573 15516 net.cpp:100] Creating Layer conv10/dw/scale
I0521 19:57:49.050577 15516 net.cpp:434] conv10/dw/scale <- conv10/dw
I0521 19:57:49.050582 15516 net.cpp:395] conv10/dw/scale -> conv10/dw (in-place)
I0521 19:57:49.050611 15516 layer_factory.hpp:77] Creating layer conv10/dw/scale
I0521 19:57:49.050686 15516 net.cpp:150] Setting up conv10/dw/scale
I0521 19:57:49.050694 15516 net.cpp:157] Top shape: 8 512 19 19 (1478656)
I0521 19:57:49.050698 15516 net.cpp:165] Memory required for data: 1121112128
I0521 19:57:49.050702 15516 layer_factory.hpp:77] Creating layer conv10/dw/relu
I0521 19:57:49.050709 15516 net.cpp:100] Creating Layer conv10/dw/relu
I0521 19:57:49.050712 15516 net.cpp:434] conv10/dw/relu <- conv10/dw
I0521 19:57:49.050727 15516 net.cpp:395] conv10/dw/relu -> conv10/dw (in-place)
I0521 19:57:49.051074 15516 net.cpp:150] Setting up conv10/dw/relu
I0521 19:57:49.051086 15516 net.cpp:157] Top shape: 8 512 19 19 (1478656)
I0521 19:57:49.051090 15516 net.cpp:165] Memory required for data: 1127026752
I0521 19:57:49.051093 15516 layer_factory.hpp:77] Creating layer conv10
I0521 19:57:49.051102 15516 net.cpp:100] Creating Layer conv10
I0521 19:57:49.051108 15516 net.cpp:434] conv10 <- conv10/dw
I0521 19:57:49.051115 15516 net.cpp:408] conv10 -> conv10
I0521 19:57:49.063150 15516 net.cpp:150] Setting up conv10
I0521 19:57:49.063165 15516 net.cpp:157] Top shape: 8 512 19 19 (1478656)
I0521 19:57:49.063169 15516 net.cpp:165] Memory required for data: 1132941376
I0521 19:57:49.063174 15516 layer_factory.hpp:77] Creating layer conv10/bn
I0521 19:57:49.063181 15516 net.cpp:100] Creating Layer conv10/bn
I0521 19:57:49.063185 15516 net.cpp:434] conv10/bn <- conv10
I0521 19:57:49.063190 15516 net.cpp:395] conv10/bn -> conv10 (in-place)
I0521 19:57:49.063326 15516 net.cpp:150] Setting up conv10/bn
I0521 19:57:49.063335 15516 net.cpp:157] Top shape: 8 512 19 19 (1478656)
I0521 19:57:49.063338 15516 net.cpp:165] Memory required for data: 1138856000
I0521 19:57:49.063345 15516 layer_factory.hpp:77] Creating layer conv10/scale
I0521 19:57:49.063351 15516 net.cpp:100] Creating Layer conv10/scale
I0521 19:57:49.063357 15516 net.cpp:434] conv10/scale <- conv10
I0521 19:57:49.063364 15516 net.cpp:395] conv10/scale -> conv10 (in-place)
I0521 19:57:49.063397 15516 layer_factory.hpp:77] Creating layer conv10/scale
I0521 19:57:49.063475 15516 net.cpp:150] Setting up conv10/scale
I0521 19:57:49.063482 15516 net.cpp:157] Top shape: 8 512 19 19 (1478656)
I0521 19:57:49.063485 15516 net.cpp:165] Memory required for data: 1144770624
I0521 19:57:49.063490 15516 layer_factory.hpp:77] Creating layer conv10/relu
I0521 19:57:49.063496 15516 net.cpp:100] Creating Layer conv10/relu
I0521 19:57:49.063500 15516 net.cpp:434] conv10/relu <- conv10
I0521 19:57:49.063504 15516 net.cpp:395] conv10/relu -> conv10 (in-place)
I0521 19:57:49.063954 15516 net.cpp:150] Setting up conv10/relu
I0521 19:57:49.063966 15516 net.cpp:157] Top shape: 8 512 19 19 (1478656)
I0521 19:57:49.063969 15516 net.cpp:165] Memory required for data: 1150685248
I0521 19:57:49.063973 15516 layer_factory.hpp:77] Creating layer conv11/dw
I0521 19:57:49.063982 15516 net.cpp:100] Creating Layer conv11/dw
I0521 19:57:49.063985 15516 net.cpp:434] conv11/dw <- conv10
I0521 19:57:49.063992 15516 net.cpp:408] conv11/dw -> conv11/dw
I0521 19:57:49.064163 15516 net.cpp:150] Setting up conv11/dw
I0521 19:57:49.064172 15516 net.cpp:157] Top shape: 8 512 19 19 (1478656)
I0521 19:57:49.064175 15516 net.cpp:165] Memory required for data: 1156599872
I0521 19:57:49.064180 15516 layer_factory.hpp:77] Creating layer conv11/dw/bn
I0521 19:57:49.064188 15516 net.cpp:100] Creating Layer conv11/dw/bn
I0521 19:57:49.064193 15516 net.cpp:434] conv11/dw/bn <- conv11/dw
I0521 19:57:49.064198 15516 net.cpp:395] conv11/dw/bn -> conv11/dw (in-place)
I0521 19:57:49.064318 15516 net.cpp:150] Setting up conv11/dw/bn
I0521 19:57:49.064325 15516 net.cpp:157] Top shape: 8 512 19 19 (1478656)
I0521 19:57:49.064328 15516 net.cpp:165] Memory required for data: 1162514496
I0521 19:57:49.064347 15516 layer_factory.hpp:77] Creating layer conv11/dw/scale
I0521 19:57:49.064357 15516 net.cpp:100] Creating Layer conv11/dw/scale
I0521 19:57:49.064360 15516 net.cpp:434] conv11/dw/scale <- conv11/dw
I0521 19:57:49.064364 15516 net.cpp:395] conv11/dw/scale -> conv11/dw (in-place)
I0521 19:57:49.064395 15516 layer_factory.hpp:77] Creating layer conv11/dw/scale
I0521 19:57:49.064468 15516 net.cpp:150] Setting up conv11/dw/scale
I0521 19:57:49.064476 15516 net.cpp:157] Top shape: 8 512 19 19 (1478656)
I0521 19:57:49.064479 15516 net.cpp:165] Memory required for data: 1168429120
I0521 19:57:49.064484 15516 layer_factory.hpp:77] Creating layer conv11/dw/relu
I0521 19:57:49.064496 15516 net.cpp:100] Creating Layer conv11/dw/relu
I0521 19:57:49.064509 15516 net.cpp:434] conv11/dw/relu <- conv11/dw
I0521 19:57:49.064514 15516 net.cpp:395] conv11/dw/relu -> conv11/dw (in-place)
I0521 19:57:49.064846 15516 net.cpp:150] Setting up conv11/dw/relu
I0521 19:57:49.064857 15516 net.cpp:157] Top shape: 8 512 19 19 (1478656)
I0521 19:57:49.064860 15516 net.cpp:165] Memory required for data: 1174343744
I0521 19:57:49.064863 15516 layer_factory.hpp:77] Creating layer conv11
I0521 19:57:49.064872 15516 net.cpp:100] Creating Layer conv11
I0521 19:57:49.064877 15516 net.cpp:434] conv11 <- conv11/dw
I0521 19:57:49.064882 15516 net.cpp:408] conv11 -> conv11
I0521 19:57:49.068658 15516 net.cpp:150] Setting up conv11
I0521 19:57:49.068670 15516 net.cpp:157] Top shape: 8 512 19 19 (1478656)
I0521 19:57:49.068675 15516 net.cpp:165] Memory required for data: 1180258368
I0521 19:57:49.068679 15516 layer_factory.hpp:77] Creating layer conv11/bn
I0521 19:57:49.068686 15516 net.cpp:100] Creating Layer conv11/bn
I0521 19:57:49.068689 15516 net.cpp:434] conv11/bn <- conv11
I0521 19:57:49.068696 15516 net.cpp:395] conv11/bn -> conv11 (in-place)
I0521 19:57:49.068828 15516 net.cpp:150] Setting up conv11/bn
I0521 19:57:49.068836 15516 net.cpp:157] Top shape: 8 512 19 19 (1478656)
I0521 19:57:49.068840 15516 net.cpp:165] Memory required for data: 1186172992
I0521 19:57:49.068846 15516 layer_factory.hpp:77] Creating layer conv11/scale
I0521 19:57:49.068853 15516 net.cpp:100] Creating Layer conv11/scale
I0521 19:57:49.068857 15516 net.cpp:434] conv11/scale <- conv11
I0521 19:57:49.068862 15516 net.cpp:395] conv11/scale -> conv11 (in-place)
I0521 19:57:49.068892 15516 layer_factory.hpp:77] Creating layer conv11/scale
I0521 19:57:49.068969 15516 net.cpp:150] Setting up conv11/scale
I0521 19:57:49.068975 15516 net.cpp:157] Top shape: 8 512 19 19 (1478656)
I0521 19:57:49.068979 15516 net.cpp:165] Memory required for data: 1192087616
I0521 19:57:49.068984 15516 layer_factory.hpp:77] Creating layer conv11/relu
I0521 19:57:49.068991 15516 net.cpp:100] Creating Layer conv11/relu
I0521 19:57:49.068995 15516 net.cpp:434] conv11/relu <- conv11
I0521 19:57:49.069000 15516 net.cpp:395] conv11/relu -> conv11 (in-place)
I0521 19:57:49.069340 15516 net.cpp:150] Setting up conv11/relu
I0521 19:57:49.069351 15516 net.cpp:157] Top shape: 8 512 19 19 (1478656)
I0521 19:57:49.069355 15516 net.cpp:165] Memory required for data: 1198002240
I0521 19:57:49.069358 15516 layer_factory.hpp:77] Creating layer conv11_conv11/relu_0_split
I0521 19:57:49.069365 15516 net.cpp:100] Creating Layer conv11_conv11/relu_0_split
I0521 19:57:49.069368 15516 net.cpp:434] conv11_conv11/relu_0_split <- conv11
I0521 19:57:49.069375 15516 net.cpp:408] conv11_conv11/relu_0_split -> conv11_conv11/relu_0_split_0
I0521 19:57:49.069386 15516 net.cpp:408] conv11_conv11/relu_0_split -> conv11_conv11/relu_0_split_1
I0521 19:57:49.069392 15516 net.cpp:408] conv11_conv11/relu_0_split -> conv11_conv11/relu_0_split_2
I0521 19:57:49.069397 15516 net.cpp:408] conv11_conv11/relu_0_split -> conv11_conv11/relu_0_split_3
I0521 19:57:49.069447 15516 net.cpp:150] Setting up conv11_conv11/relu_0_split
I0521 19:57:49.069455 15516 net.cpp:157] Top shape: 8 512 19 19 (1478656)
I0521 19:57:49.069459 15516 net.cpp:157] Top shape: 8 512 19 19 (1478656)
I0521 19:57:49.069464 15516 net.cpp:157] Top shape: 8 512 19 19 (1478656)
I0521 19:57:49.069469 15516 net.cpp:157] Top shape: 8 512 19 19 (1478656)
I0521 19:57:49.069473 15516 net.cpp:165] Memory required for data: 1221660736
I0521 19:57:49.069476 15516 layer_factory.hpp:77] Creating layer conv12/dw
I0521 19:57:49.069485 15516 net.cpp:100] Creating Layer conv12/dw
I0521 19:57:49.069489 15516 net.cpp:434] conv12/dw <- conv11_conv11/relu_0_split_0
I0521 19:57:49.069496 15516 net.cpp:408] conv12/dw -> conv12/dw
I0521 19:57:49.069659 15516 net.cpp:150] Setting up conv12/dw
I0521 19:57:49.069666 15516 net.cpp:157] Top shape: 8 512 10 10 (409600)
I0521 19:57:49.069669 15516 net.cpp:165] Memory required for data: 1223299136
I0521 19:57:49.069674 15516 layer_factory.hpp:77] Creating layer conv12/dw/bn
I0521 19:57:49.069691 15516 net.cpp:100] Creating Layer conv12/dw/bn
I0521 19:57:49.069715 15516 net.cpp:434] conv12/dw/bn <- conv12/dw
I0521 19:57:49.069722 15516 net.cpp:395] conv12/dw/bn -> conv12/dw (in-place)
I0521 19:57:49.069857 15516 net.cpp:150] Setting up conv12/dw/bn
I0521 19:57:49.069865 15516 net.cpp:157] Top shape: 8 512 10 10 (409600)
I0521 19:57:49.069869 15516 net.cpp:165] Memory required for data: 1224937536
I0521 19:57:49.069875 15516 layer_factory.hpp:77] Creating layer conv12/dw/scale
I0521 19:57:49.069883 15516 net.cpp:100] Creating Layer conv12/dw/scale
I0521 19:57:49.069887 15516 net.cpp:434] conv12/dw/scale <- conv12/dw
I0521 19:57:49.069892 15516 net.cpp:395] conv12/dw/scale -> conv12/dw (in-place)
I0521 19:57:49.069921 15516 layer_factory.hpp:77] Creating layer conv12/dw/scale
I0521 19:57:49.069995 15516 net.cpp:150] Setting up conv12/dw/scale
I0521 19:57:49.070003 15516 net.cpp:157] Top shape: 8 512 10 10 (409600)
I0521 19:57:49.070006 15516 net.cpp:165] Memory required for data: 1226575936
I0521 19:57:49.070011 15516 layer_factory.hpp:77] Creating layer conv12/dw/relu
I0521 19:57:49.070020 15516 net.cpp:100] Creating Layer conv12/dw/relu
I0521 19:57:49.070024 15516 net.cpp:434] conv12/dw/relu <- conv12/dw
I0521 19:57:49.070029 15516 net.cpp:395] conv12/dw/relu -> conv12/dw (in-place)
I0521 19:57:49.070449 15516 net.cpp:150] Setting up conv12/dw/relu
I0521 19:57:49.070461 15516 net.cpp:157] Top shape: 8 512 10 10 (409600)
I0521 19:57:49.070466 15516 net.cpp:165] Memory required for data: 1228214336
I0521 19:57:49.070469 15516 layer_factory.hpp:77] Creating layer conv12
I0521 19:57:49.070478 15516 net.cpp:100] Creating Layer conv12
I0521 19:57:49.070484 15516 net.cpp:434] conv12 <- conv12/dw
I0521 19:57:49.070492 15516 net.cpp:408] conv12 -> conv12
I0521 19:57:49.077141 15516 net.cpp:150] Setting up conv12
I0521 19:57:49.077157 15516 net.cpp:157] Top shape: 8 1024 10 10 (819200)
I0521 19:57:49.077159 15516 net.cpp:165] Memory required for data: 1231491136
I0521 19:57:49.077165 15516 layer_factory.hpp:77] Creating layer conv12/bn
I0521 19:57:49.077172 15516 net.cpp:100] Creating Layer conv12/bn
I0521 19:57:49.077178 15516 net.cpp:434] conv12/bn <- conv12
I0521 19:57:49.077183 15516 net.cpp:395] conv12/bn -> conv12 (in-place)
I0521 19:57:49.077324 15516 net.cpp:150] Setting up conv12/bn
I0521 19:57:49.077332 15516 net.cpp:157] Top shape: 8 1024 10 10 (819200)
I0521 19:57:49.077335 15516 net.cpp:165] Memory required for data: 1234767936
I0521 19:57:49.077342 15516 layer_factory.hpp:77] Creating layer conv12/scale
I0521 19:57:49.077349 15516 net.cpp:100] Creating Layer conv12/scale
I0521 19:57:49.077353 15516 net.cpp:434] conv12/scale <- conv12
I0521 19:57:49.077358 15516 net.cpp:395] conv12/scale -> conv12 (in-place)
I0521 19:57:49.077390 15516 layer_factory.hpp:77] Creating layer conv12/scale
I0521 19:57:49.077468 15516 net.cpp:150] Setting up conv12/scale
I0521 19:57:49.077476 15516 net.cpp:157] Top shape: 8 1024 10 10 (819200)
I0521 19:57:49.077479 15516 net.cpp:165] Memory required for data: 1238044736
I0521 19:57:49.077484 15516 layer_factory.hpp:77] Creating layer conv12/relu
I0521 19:57:49.077489 15516 net.cpp:100] Creating Layer conv12/relu
I0521 19:57:49.077493 15516 net.cpp:434] conv12/relu <- conv12
I0521 19:57:49.077498 15516 net.cpp:395] conv12/relu -> conv12 (in-place)
I0521 19:57:49.077845 15516 net.cpp:150] Setting up conv12/relu
I0521 19:57:49.077857 15516 net.cpp:157] Top shape: 8 1024 10 10 (819200)
I0521 19:57:49.077872 15516 net.cpp:165] Memory required for data: 1241321536
I0521 19:57:49.077875 15516 layer_factory.hpp:77] Creating layer conv13/dw
I0521 19:57:49.077883 15516 net.cpp:100] Creating Layer conv13/dw
I0521 19:57:49.077888 15516 net.cpp:434] conv13/dw <- conv12
I0521 19:57:49.077894 15516 net.cpp:408] conv13/dw -> conv13/dw
I0521 19:57:49.078102 15516 net.cpp:150] Setting up conv13/dw
I0521 19:57:49.078110 15516 net.cpp:157] Top shape: 8 1024 10 10 (819200)
I0521 19:57:49.078114 15516 net.cpp:165] Memory required for data: 1244598336
I0521 19:57:49.078119 15516 layer_factory.hpp:77] Creating layer conv13/dw/bn
I0521 19:57:49.078133 15516 net.cpp:100] Creating Layer conv13/dw/bn
I0521 19:57:49.078137 15516 net.cpp:434] conv13/dw/bn <- conv13/dw
I0521 19:57:49.078142 15516 net.cpp:395] conv13/dw/bn -> conv13/dw (in-place)
I0521 19:57:49.078274 15516 net.cpp:150] Setting up conv13/dw/bn
I0521 19:57:49.078281 15516 net.cpp:157] Top shape: 8 1024 10 10 (819200)
I0521 19:57:49.078284 15516 net.cpp:165] Memory required for data: 1247875136
I0521 19:57:49.078290 15516 layer_factory.hpp:77] Creating layer conv13/dw/scale
I0521 19:57:49.078296 15516 net.cpp:100] Creating Layer conv13/dw/scale
I0521 19:57:49.078300 15516 net.cpp:434] conv13/dw/scale <- conv13/dw
I0521 19:57:49.078306 15516 net.cpp:395] conv13/dw/scale -> conv13/dw (in-place)
I0521 19:57:49.078336 15516 layer_factory.hpp:77] Creating layer conv13/dw/scale
I0521 19:57:49.078419 15516 net.cpp:150] Setting up conv13/dw/scale
I0521 19:57:49.078426 15516 net.cpp:157] Top shape: 8 1024 10 10 (819200)
I0521 19:57:49.078429 15516 net.cpp:165] Memory required for data: 1251151936
I0521 19:57:49.078434 15516 layer_factory.hpp:77] Creating layer conv13/dw/relu
I0521 19:57:49.078439 15516 net.cpp:100] Creating Layer conv13/dw/relu
I0521 19:57:49.078444 15516 net.cpp:434] conv13/dw/relu <- conv13/dw
I0521 19:57:49.078449 15516 net.cpp:395] conv13/dw/relu -> conv13/dw (in-place)
I0521 19:57:49.078873 15516 net.cpp:150] Setting up conv13/dw/relu
I0521 19:57:49.078886 15516 net.cpp:157] Top shape: 8 1024 10 10 (819200)
I0521 19:57:49.078889 15516 net.cpp:165] Memory required for data: 1254428736
I0521 19:57:49.078893 15516 layer_factory.hpp:77] Creating layer conv13
I0521 19:57:49.078902 15516 net.cpp:100] Creating Layer conv13
I0521 19:57:49.078905 15516 net.cpp:434] conv13 <- conv13/dw
I0521 19:57:49.078912 15516 net.cpp:408] conv13 -> conv13
I0521 19:57:49.089232 15516 net.cpp:150] Setting up conv13
I0521 19:57:49.089247 15516 net.cpp:157] Top shape: 8 1024 10 10 (819200)
I0521 19:57:49.089251 15516 net.cpp:165] Memory required for data: 1257705536
I0521 19:57:49.089257 15516 layer_factory.hpp:77] Creating layer conv13/bn
I0521 19:57:49.089262 15516 net.cpp:100] Creating Layer conv13/bn
I0521 19:57:49.089267 15516 net.cpp:434] conv13/bn <- conv13
I0521 19:57:49.089272 15516 net.cpp:395] conv13/bn -> conv13 (in-place)
I0521 19:57:49.089421 15516 net.cpp:150] Setting up conv13/bn
I0521 19:57:49.089428 15516 net.cpp:157] Top shape: 8 1024 10 10 (819200)
I0521 19:57:49.089432 15516 net.cpp:165] Memory required for data: 1260982336
I0521 19:57:49.089438 15516 layer_factory.hpp:77] Creating layer conv13/scale
I0521 19:57:49.089444 15516 net.cpp:100] Creating Layer conv13/scale
I0521 19:57:49.089448 15516 net.cpp:434] conv13/scale <- conv13
I0521 19:57:49.089453 15516 net.cpp:395] conv13/scale -> conv13 (in-place)
I0521 19:57:49.089486 15516 layer_factory.hpp:77] Creating layer conv13/scale
I0521 19:57:49.089562 15516 net.cpp:150] Setting up conv13/scale
I0521 19:57:49.089570 15516 net.cpp:157] Top shape: 8 1024 10 10 (819200)
I0521 19:57:49.089572 15516 net.cpp:165] Memory required for data: 1264259136
I0521 19:57:49.089578 15516 layer_factory.hpp:77] Creating layer conv13/relu
I0521 19:57:49.089583 15516 net.cpp:100] Creating Layer conv13/relu
I0521 19:57:49.089587 15516 net.cpp:434] conv13/relu <- conv13
I0521 19:57:49.089593 15516 net.cpp:395] conv13/relu -> conv13 (in-place)
I0521 19:57:49.089956 15516 net.cpp:150] Setting up conv13/relu
I0521 19:57:49.089968 15516 net.cpp:157] Top shape: 8 1024 10 10 (819200)
I0521 19:57:49.089972 15516 net.cpp:165] Memory required for data: 1267535936
I0521 19:57:49.089975 15516 layer_factory.hpp:77] Creating layer conv13_conv13/relu_0_split
I0521 19:57:49.089982 15516 net.cpp:100] Creating Layer conv13_conv13/relu_0_split
I0521 19:57:49.089985 15516 net.cpp:434] conv13_conv13/relu_0_split <- conv13
I0521 19:57:49.089992 15516 net.cpp:408] conv13_conv13/relu_0_split -> conv13_conv13/relu_0_split_0
I0521 19:57:49.089998 15516 net.cpp:408] conv13_conv13/relu_0_split -> conv13_conv13/relu_0_split_1
I0521 19:57:49.090003 15516 net.cpp:408] conv13_conv13/relu_0_split -> conv13_conv13/relu_0_split_2
I0521 19:57:49.090019 15516 net.cpp:408] conv13_conv13/relu_0_split -> conv13_conv13/relu_0_split_3
I0521 19:57:49.090085 15516 net.cpp:150] Setting up conv13_conv13/relu_0_split
I0521 19:57:49.090091 15516 net.cpp:157] Top shape: 8 1024 10 10 (819200)
I0521 19:57:49.090095 15516 net.cpp:157] Top shape: 8 1024 10 10 (819200)
I0521 19:57:49.090099 15516 net.cpp:157] Top shape: 8 1024 10 10 (819200)
I0521 19:57:49.090103 15516 net.cpp:157] Top shape: 8 1024 10 10 (819200)
I0521 19:57:49.090106 15516 net.cpp:165] Memory required for data: 1280643136
I0521 19:57:49.090109 15516 layer_factory.hpp:77] Creating layer conv14_1
I0521 19:57:49.090119 15516 net.cpp:100] Creating Layer conv14_1
I0521 19:57:49.090123 15516 net.cpp:434] conv14_1 <- conv13_conv13/relu_0_split_0
I0521 19:57:49.090129 15516 net.cpp:408] conv14_1 -> conv14_1
I0521 19:57:49.094197 15516 net.cpp:150] Setting up conv14_1
I0521 19:57:49.094209 15516 net.cpp:157] Top shape: 8 256 10 10 (204800)
I0521 19:57:49.094213 15516 net.cpp:165] Memory required for data: 1281462336
I0521 19:57:49.094218 15516 layer_factory.hpp:77] Creating layer conv14_1/bn
I0521 19:57:49.094223 15516 net.cpp:100] Creating Layer conv14_1/bn
I0521 19:57:49.094228 15516 net.cpp:434] conv14_1/bn <- conv14_1
I0521 19:57:49.094233 15516 net.cpp:395] conv14_1/bn -> conv14_1 (in-place)
I0521 19:57:49.094379 15516 net.cpp:150] Setting up conv14_1/bn
I0521 19:57:49.094388 15516 net.cpp:157] Top shape: 8 256 10 10 (204800)
I0521 19:57:49.094390 15516 net.cpp:165] Memory required for data: 1282281536
I0521 19:57:49.094396 15516 layer_factory.hpp:77] Creating layer conv14_1/scale
I0521 19:57:49.094403 15516 net.cpp:100] Creating Layer conv14_1/scale
I0521 19:57:49.094406 15516 net.cpp:434] conv14_1/scale <- conv14_1
I0521 19:57:49.094413 15516 net.cpp:395] conv14_1/scale -> conv14_1 (in-place)
I0521 19:57:49.094442 15516 layer_factory.hpp:77] Creating layer conv14_1/scale
I0521 19:57:49.094521 15516 net.cpp:150] Setting up conv14_1/scale
I0521 19:57:49.094527 15516 net.cpp:157] Top shape: 8 256 10 10 (204800)
I0521 19:57:49.094532 15516 net.cpp:165] Memory required for data: 1283100736
I0521 19:57:49.094537 15516 layer_factory.hpp:77] Creating layer conv14_1/relu
I0521 19:57:49.094542 15516 net.cpp:100] Creating Layer conv14_1/relu
I0521 19:57:49.094547 15516 net.cpp:434] conv14_1/relu <- conv14_1
I0521 19:57:49.094552 15516 net.cpp:395] conv14_1/relu -> conv14_1 (in-place)
I0521 19:57:49.094972 15516 net.cpp:150] Setting up conv14_1/relu
I0521 19:57:49.094985 15516 net.cpp:157] Top shape: 8 256 10 10 (204800)
I0521 19:57:49.094988 15516 net.cpp:165] Memory required for data: 1283919936
I0521 19:57:49.094991 15516 layer_factory.hpp:77] Creating layer conv14_2
I0521 19:57:49.095000 15516 net.cpp:100] Creating Layer conv14_2
I0521 19:57:49.095005 15516 net.cpp:434] conv14_2 <- conv14_1
I0521 19:57:49.095010 15516 net.cpp:408] conv14_2 -> conv14_2
I0521 19:57:49.106308 15516 net.cpp:150] Setting up conv14_2
I0521 19:57:49.106334 15516 net.cpp:157] Top shape: 8 512 5 5 (102400)
I0521 19:57:49.106338 15516 net.cpp:165] Memory required for data: 1284329536
I0521 19:57:49.106343 15516 layer_factory.hpp:77] Creating layer conv14_2/bn
I0521 19:57:49.106349 15516 net.cpp:100] Creating Layer conv14_2/bn
I0521 19:57:49.106353 15516 net.cpp:434] conv14_2/bn <- conv14_2
I0521 19:57:49.106359 15516 net.cpp:395] conv14_2/bn -> conv14_2 (in-place)
I0521 19:57:49.106498 15516 net.cpp:150] Setting up conv14_2/bn
I0521 19:57:49.106506 15516 net.cpp:157] Top shape: 8 512 5 5 (102400)
I0521 19:57:49.106509 15516 net.cpp:165] Memory required for data: 1284739136
I0521 19:57:49.106515 15516 layer_factory.hpp:77] Creating layer conv14_2/scale
I0521 19:57:49.106523 15516 net.cpp:100] Creating Layer conv14_2/scale
I0521 19:57:49.106526 15516 net.cpp:434] conv14_2/scale <- conv14_2
I0521 19:57:49.106532 15516 net.cpp:395] conv14_2/scale -> conv14_2 (in-place)
I0521 19:57:49.106564 15516 layer_factory.hpp:77] Creating layer conv14_2/scale
I0521 19:57:49.106654 15516 net.cpp:150] Setting up conv14_2/scale
I0521 19:57:49.106663 15516 net.cpp:157] Top shape: 8 512 5 5 (102400)
I0521 19:57:49.106667 15516 net.cpp:165] Memory required for data: 1285148736
I0521 19:57:49.106673 15516 layer_factory.hpp:77] Creating layer conv14_2/relu
I0521 19:57:49.106678 15516 net.cpp:100] Creating Layer conv14_2/relu
I0521 19:57:49.106683 15516 net.cpp:434] conv14_2/relu <- conv14_2
I0521 19:57:49.106688 15516 net.cpp:395] conv14_2/relu -> conv14_2 (in-place)
I0521 19:57:49.107205 15516 net.cpp:150] Setting up conv14_2/relu
I0521 19:57:49.107216 15516 net.cpp:157] Top shape: 8 512 5 5 (102400)
I0521 19:57:49.107220 15516 net.cpp:165] Memory required for data: 1285558336
I0521 19:57:49.107223 15516 layer_factory.hpp:77] Creating layer conv14_2_conv14_2/relu_0_split
I0521 19:57:49.107229 15516 net.cpp:100] Creating Layer conv14_2_conv14_2/relu_0_split
I0521 19:57:49.107234 15516 net.cpp:434] conv14_2_conv14_2/relu_0_split <- conv14_2
I0521 19:57:49.107239 15516 net.cpp:408] conv14_2_conv14_2/relu_0_split -> conv14_2_conv14_2/relu_0_split_0
I0521 19:57:49.107246 15516 net.cpp:408] conv14_2_conv14_2/relu_0_split -> conv14_2_conv14_2/relu_0_split_1
I0521 19:57:49.107254 15516 net.cpp:408] conv14_2_conv14_2/relu_0_split -> conv14_2_conv14_2/relu_0_split_2
I0521 19:57:49.107264 15516 net.cpp:408] conv14_2_conv14_2/relu_0_split -> conv14_2_conv14_2/relu_0_split_3
I0521 19:57:49.107312 15516 net.cpp:150] Setting up conv14_2_conv14_2/relu_0_split
I0521 19:57:49.107319 15516 net.cpp:157] Top shape: 8 512 5 5 (102400)
I0521 19:57:49.107323 15516 net.cpp:157] Top shape: 8 512 5 5 (102400)
I0521 19:57:49.107326 15516 net.cpp:157] Top shape: 8 512 5 5 (102400)
I0521 19:57:49.107331 15516 net.cpp:157] Top shape: 8 512 5 5 (102400)
I0521 19:57:49.107334 15516 net.cpp:165] Memory required for data: 1287196736
I0521 19:57:49.107337 15516 layer_factory.hpp:77] Creating layer conv15_1
I0521 19:57:49.107345 15516 net.cpp:100] Creating Layer conv15_1
I0521 19:57:49.107349 15516 net.cpp:434] conv15_1 <- conv14_2_conv14_2/relu_0_split_0
I0521 19:57:49.107355 15516 net.cpp:408] conv15_1 -> conv15_1
I0521 19:57:49.109472 15516 net.cpp:150] Setting up conv15_1
I0521 19:57:49.109484 15516 net.cpp:157] Top shape: 8 128 5 5 (25600)
I0521 19:57:49.109488 15516 net.cpp:165] Memory required for data: 1287299136
I0521 19:57:49.109493 15516 layer_factory.hpp:77] Creating layer conv15_1/bn
I0521 19:57:49.109498 15516 net.cpp:100] Creating Layer conv15_1/bn
I0521 19:57:49.109503 15516 net.cpp:434] conv15_1/bn <- conv15_1
I0521 19:57:49.109508 15516 net.cpp:395] conv15_1/bn -> conv15_1 (in-place)
I0521 19:57:49.109653 15516 net.cpp:150] Setting up conv15_1/bn
I0521 19:57:49.109661 15516 net.cpp:157] Top shape: 8 128 5 5 (25600)
I0521 19:57:49.109664 15516 net.cpp:165] Memory required for data: 1287401536
I0521 19:57:49.109671 15516 layer_factory.hpp:77] Creating layer conv15_1/scale
I0521 19:57:49.109678 15516 net.cpp:100] Creating Layer conv15_1/scale
I0521 19:57:49.109683 15516 net.cpp:434] conv15_1/scale <- conv15_1
I0521 19:57:49.109688 15516 net.cpp:395] conv15_1/scale -> conv15_1 (in-place)
I0521 19:57:49.109735 15516 layer_factory.hpp:77] Creating layer conv15_1/scale
I0521 19:57:49.109817 15516 net.cpp:150] Setting up conv15_1/scale
I0521 19:57:49.109823 15516 net.cpp:157] Top shape: 8 128 5 5 (25600)
I0521 19:57:49.109827 15516 net.cpp:165] Memory required for data: 1287503936
I0521 19:57:49.109833 15516 layer_factory.hpp:77] Creating layer conv15_1/relu
I0521 19:57:49.109838 15516 net.cpp:100] Creating Layer conv15_1/relu
I0521 19:57:49.109843 15516 net.cpp:434] conv15_1/relu <- conv15_1
I0521 19:57:49.109849 15516 net.cpp:395] conv15_1/relu -> conv15_1 (in-place)
I0521 19:57:49.110630 15516 net.cpp:150] Setting up conv15_1/relu
I0521 19:57:49.110641 15516 net.cpp:157] Top shape: 8 128 5 5 (25600)
I0521 19:57:49.110646 15516 net.cpp:165] Memory required for data: 1287606336
I0521 19:57:49.110648 15516 layer_factory.hpp:77] Creating layer conv15_2
I0521 19:57:49.110657 15516 net.cpp:100] Creating Layer conv15_2
I0521 19:57:49.110669 15516 net.cpp:434] conv15_2 <- conv15_1
I0521 19:57:49.110677 15516 net.cpp:408] conv15_2 -> conv15_2
I0521 19:57:49.114467 15516 net.cpp:150] Setting up conv15_2
I0521 19:57:49.114482 15516 net.cpp:157] Top shape: 8 256 3 3 (18432)
I0521 19:57:49.114486 15516 net.cpp:165] Memory required for data: 1287680064
I0521 19:57:49.114490 15516 layer_factory.hpp:77] Creating layer conv15_2/bn
I0521 19:57:49.114496 15516 net.cpp:100] Creating Layer conv15_2/bn
I0521 19:57:49.114500 15516 net.cpp:434] conv15_2/bn <- conv15_2
I0521 19:57:49.114506 15516 net.cpp:395] conv15_2/bn -> conv15_2 (in-place)
I0521 19:57:49.114677 15516 net.cpp:150] Setting up conv15_2/bn
I0521 19:57:49.114691 15516 net.cpp:157] Top shape: 8 256 3 3 (18432)
I0521 19:57:49.114696 15516 net.cpp:165] Memory required for data: 1287753792
I0521 19:57:49.114706 15516 layer_factory.hpp:77] Creating layer conv15_2/scale
I0521 19:57:49.114713 15516 net.cpp:100] Creating Layer conv15_2/scale
I0521 19:57:49.114717 15516 net.cpp:434] conv15_2/scale <- conv15_2
I0521 19:57:49.114722 15516 net.cpp:395] conv15_2/scale -> conv15_2 (in-place)
I0521 19:57:49.114756 15516 layer_factory.hpp:77] Creating layer conv15_2/scale
I0521 19:57:49.114833 15516 net.cpp:150] Setting up conv15_2/scale
I0521 19:57:49.114841 15516 net.cpp:157] Top shape: 8 256 3 3 (18432)
I0521 19:57:49.114845 15516 net.cpp:165] Memory required for data: 1287827520
I0521 19:57:49.114850 15516 layer_factory.hpp:77] Creating layer conv15_2/relu
I0521 19:57:49.114864 15516 net.cpp:100] Creating Layer conv15_2/relu
I0521 19:57:49.114869 15516 net.cpp:434] conv15_2/relu <- conv15_2
I0521 19:57:49.114873 15516 net.cpp:395] conv15_2/relu -> conv15_2 (in-place)
I0521 19:57:49.115401 15516 net.cpp:150] Setting up conv15_2/relu
I0521 19:57:49.115413 15516 net.cpp:157] Top shape: 8 256 3 3 (18432)
I0521 19:57:49.115417 15516 net.cpp:165] Memory required for data: 1287901248
I0521 19:57:49.115422 15516 layer_factory.hpp:77] Creating layer conv15_2_conv15_2/relu_0_split
I0521 19:57:49.115428 15516 net.cpp:100] Creating Layer conv15_2_conv15_2/relu_0_split
I0521 19:57:49.115432 15516 net.cpp:434] conv15_2_conv15_2/relu_0_split <- conv15_2
I0521 19:57:49.115437 15516 net.cpp:408] conv15_2_conv15_2/relu_0_split -> conv15_2_conv15_2/relu_0_split_0
I0521 19:57:49.115443 15516 net.cpp:408] conv15_2_conv15_2/relu_0_split -> conv15_2_conv15_2/relu_0_split_1
I0521 19:57:49.115450 15516 net.cpp:408] conv15_2_conv15_2/relu_0_split -> conv15_2_conv15_2/relu_0_split_2
I0521 19:57:49.115455 15516 net.cpp:408] conv15_2_conv15_2/relu_0_split -> conv15_2_conv15_2/relu_0_split_3
I0521 19:57:49.115509 15516 net.cpp:150] Setting up conv15_2_conv15_2/relu_0_split
I0521 19:57:49.115515 15516 net.cpp:157] Top shape: 8 256 3 3 (18432)
I0521 19:57:49.115520 15516 net.cpp:157] Top shape: 8 256 3 3 (18432)
I0521 19:57:49.115523 15516 net.cpp:157] Top shape: 8 256 3 3 (18432)
I0521 19:57:49.115527 15516 net.cpp:157] Top shape: 8 256 3 3 (18432)
I0521 19:57:49.115531 15516 net.cpp:165] Memory required for data: 1288196160
I0521 19:57:49.115535 15516 layer_factory.hpp:77] Creating layer conv16_1
I0521 19:57:49.115543 15516 net.cpp:100] Creating Layer conv16_1
I0521 19:57:49.115547 15516 net.cpp:434] conv16_1 <- conv15_2_conv15_2/relu_0_split_0
I0521 19:57:49.115553 15516 net.cpp:408] conv16_1 -> conv16_1
I0521 19:57:49.117195 15516 net.cpp:150] Setting up conv16_1
I0521 19:57:49.117208 15516 net.cpp:157] Top shape: 8 128 3 3 (9216)
I0521 19:57:49.117211 15516 net.cpp:165] Memory required for data: 1288233024
I0521 19:57:49.117216 15516 layer_factory.hpp:77] Creating layer conv16_1/bn
I0521 19:57:49.117223 15516 net.cpp:100] Creating Layer conv16_1/bn
I0521 19:57:49.117228 15516 net.cpp:434] conv16_1/bn <- conv16_1
I0521 19:57:49.117233 15516 net.cpp:395] conv16_1/bn -> conv16_1 (in-place)
I0521 19:57:49.117377 15516 net.cpp:150] Setting up conv16_1/bn
I0521 19:57:49.117385 15516 net.cpp:157] Top shape: 8 128 3 3 (9216)
I0521 19:57:49.117388 15516 net.cpp:165] Memory required for data: 1288269888
I0521 19:57:49.117394 15516 layer_factory.hpp:77] Creating layer conv16_1/scale
I0521 19:57:49.117411 15516 net.cpp:100] Creating Layer conv16_1/scale
I0521 19:57:49.117416 15516 net.cpp:434] conv16_1/scale <- conv16_1
I0521 19:57:49.117422 15516 net.cpp:395] conv16_1/scale -> conv16_1 (in-place)
I0521 19:57:49.117455 15516 layer_factory.hpp:77] Creating layer conv16_1/scale
I0521 19:57:49.117532 15516 net.cpp:150] Setting up conv16_1/scale
I0521 19:57:49.117538 15516 net.cpp:157] Top shape: 8 128 3 3 (9216)
I0521 19:57:49.117542 15516 net.cpp:165] Memory required for data: 1288306752
I0521 19:57:49.117547 15516 layer_factory.hpp:77] Creating layer conv16_1/relu
I0521 19:57:49.117553 15516 net.cpp:100] Creating Layer conv16_1/relu
I0521 19:57:49.117558 15516 net.cpp:434] conv16_1/relu <- conv16_1
I0521 19:57:49.117563 15516 net.cpp:395] conv16_1/relu -> conv16_1 (in-place)
I0521 19:57:49.117923 15516 net.cpp:150] Setting up conv16_1/relu
I0521 19:57:49.117934 15516 net.cpp:157] Top shape: 8 128 3 3 (9216)
I0521 19:57:49.117947 15516 net.cpp:165] Memory required for data: 1288343616
I0521 19:57:49.117951 15516 layer_factory.hpp:77] Creating layer conv16_2
I0521 19:57:49.117961 15516 net.cpp:100] Creating Layer conv16_2
I0521 19:57:49.117965 15516 net.cpp:434] conv16_2 <- conv16_1
I0521 19:57:49.117971 15516 net.cpp:408] conv16_2 -> conv16_2
I0521 19:57:49.122337 15516 net.cpp:150] Setting up conv16_2
I0521 19:57:49.122362 15516 net.cpp:157] Top shape: 8 256 2 2 (8192)
I0521 19:57:49.122366 15516 net.cpp:165] Memory required for data: 1288376384
I0521 19:57:49.122371 15516 layer_factory.hpp:77] Creating layer conv16_2/bn
I0521 19:57:49.122376 15516 net.cpp:100] Creating Layer conv16_2/bn
I0521 19:57:49.122380 15516 net.cpp:434] conv16_2/bn <- conv16_2
I0521 19:57:49.122386 15516 net.cpp:395] conv16_2/bn -> conv16_2 (in-place)
I0521 19:57:49.122521 15516 net.cpp:150] Setting up conv16_2/bn
I0521 19:57:49.122529 15516 net.cpp:157] Top shape: 8 256 2 2 (8192)
I0521 19:57:49.122532 15516 net.cpp:165] Memory required for data: 1288409152
I0521 19:57:49.122539 15516 layer_factory.hpp:77] Creating layer conv16_2/scale
I0521 19:57:49.122545 15516 net.cpp:100] Creating Layer conv16_2/scale
I0521 19:57:49.122548 15516 net.cpp:434] conv16_2/scale <- conv16_2
I0521 19:57:49.122555 15516 net.cpp:395] conv16_2/scale -> conv16_2 (in-place)
I0521 19:57:49.122582 15516 layer_factory.hpp:77] Creating layer conv16_2/scale
I0521 19:57:49.122658 15516 net.cpp:150] Setting up conv16_2/scale
I0521 19:57:49.122665 15516 net.cpp:157] Top shape: 8 256 2 2 (8192)
I0521 19:57:49.122669 15516 net.cpp:165] Memory required for data: 1288441920
I0521 19:57:49.122674 15516 layer_factory.hpp:77] Creating layer conv16_2/relu
I0521 19:57:49.122679 15516 net.cpp:100] Creating Layer conv16_2/relu
I0521 19:57:49.122684 15516 net.cpp:434] conv16_2/relu <- conv16_2
I0521 19:57:49.122689 15516 net.cpp:395] conv16_2/relu -> conv16_2 (in-place)
I0521 19:57:49.123037 15516 net.cpp:150] Setting up conv16_2/relu
I0521 19:57:49.123049 15516 net.cpp:157] Top shape: 8 256 2 2 (8192)
I0521 19:57:49.123062 15516 net.cpp:165] Memory required for data: 1288474688
I0521 19:57:49.123066 15516 layer_factory.hpp:77] Creating layer conv16_2_conv16_2/relu_0_split
I0521 19:57:49.123073 15516 net.cpp:100] Creating Layer conv16_2_conv16_2/relu_0_split
I0521 19:57:49.123077 15516 net.cpp:434] conv16_2_conv16_2/relu_0_split <- conv16_2
I0521 19:57:49.123082 15516 net.cpp:408] conv16_2_conv16_2/relu_0_split -> conv16_2_conv16_2/relu_0_split_0
I0521 19:57:49.123090 15516 net.cpp:408] conv16_2_conv16_2/relu_0_split -> conv16_2_conv16_2/relu_0_split_1
I0521 19:57:49.123096 15516 net.cpp:408] conv16_2_conv16_2/relu_0_split -> conv16_2_conv16_2/relu_0_split_2
I0521 19:57:49.123101 15516 net.cpp:408] conv16_2_conv16_2/relu_0_split -> conv16_2_conv16_2/relu_0_split_3
I0521 19:57:49.123150 15516 net.cpp:150] Setting up conv16_2_conv16_2/relu_0_split
I0521 19:57:49.123157 15516 net.cpp:157] Top shape: 8 256 2 2 (8192)
I0521 19:57:49.123162 15516 net.cpp:157] Top shape: 8 256 2 2 (8192)
I0521 19:57:49.123165 15516 net.cpp:157] Top shape: 8 256 2 2 (8192)
I0521 19:57:49.123178 15516 net.cpp:157] Top shape: 8 256 2 2 (8192)
I0521 19:57:49.123181 15516 net.cpp:165] Memory required for data: 1288605760
I0521 19:57:49.123185 15516 layer_factory.hpp:77] Creating layer conv17_1
I0521 19:57:49.123195 15516 net.cpp:100] Creating Layer conv17_1
I0521 19:57:49.123200 15516 net.cpp:434] conv17_1 <- conv16_2_conv16_2/relu_0_split_0
I0521 19:57:49.123209 15516 net.cpp:408] conv17_1 -> conv17_1
I0521 19:57:49.124722 15516 net.cpp:150] Setting up conv17_1
I0521 19:57:49.124732 15516 net.cpp:157] Top shape: 8 64 2 2 (2048)
I0521 19:57:49.124747 15516 net.cpp:165] Memory required for data: 1288613952
I0521 19:57:49.124753 15516 layer_factory.hpp:77] Creating layer conv17_1/bn
I0521 19:57:49.124760 15516 net.cpp:100] Creating Layer conv17_1/bn
I0521 19:57:49.124764 15516 net.cpp:434] conv17_1/bn <- conv17_1
I0521 19:57:49.124769 15516 net.cpp:395] conv17_1/bn -> conv17_1 (in-place)
I0521 19:57:49.124914 15516 net.cpp:150] Setting up conv17_1/bn
I0521 19:57:49.124922 15516 net.cpp:157] Top shape: 8 64 2 2 (2048)
I0521 19:57:49.124925 15516 net.cpp:165] Memory required for data: 1288622144
I0521 19:57:49.124931 15516 layer_factory.hpp:77] Creating layer conv17_1/scale
I0521 19:57:49.124939 15516 net.cpp:100] Creating Layer conv17_1/scale
I0521 19:57:49.124944 15516 net.cpp:434] conv17_1/scale <- conv17_1
I0521 19:57:49.124949 15516 net.cpp:395] conv17_1/scale -> conv17_1 (in-place)
I0521 19:57:49.124980 15516 layer_factory.hpp:77] Creating layer conv17_1/scale
I0521 19:57:49.125061 15516 net.cpp:150] Setting up conv17_1/scale
I0521 19:57:49.125068 15516 net.cpp:157] Top shape: 8 64 2 2 (2048)
I0521 19:57:49.125072 15516 net.cpp:165] Memory required for data: 1288630336
I0521 19:57:49.125077 15516 layer_factory.hpp:77] Creating layer conv17_1/relu
I0521 19:57:49.125082 15516 net.cpp:100] Creating Layer conv17_1/relu
I0521 19:57:49.125087 15516 net.cpp:434] conv17_1/relu <- conv17_1
I0521 19:57:49.125092 15516 net.cpp:395] conv17_1/relu -> conv17_1 (in-place)
I0521 19:57:49.125525 15516 net.cpp:150] Setting up conv17_1/relu
I0521 19:57:49.125537 15516 net.cpp:157] Top shape: 8 64 2 2 (2048)
I0521 19:57:49.125540 15516 net.cpp:165] Memory required for data: 1288638528
I0521 19:57:49.125543 15516 layer_factory.hpp:77] Creating layer conv17_2
I0521 19:57:49.125553 15516 net.cpp:100] Creating Layer conv17_2
I0521 19:57:49.125557 15516 net.cpp:434] conv17_2 <- conv17_1
I0521 19:57:49.125562 15516 net.cpp:408] conv17_2 -> conv17_2
I0521 19:57:49.127539 15516 net.cpp:150] Setting up conv17_2
I0521 19:57:49.127552 15516 net.cpp:157] Top shape: 8 128 1 1 (1024)
I0521 19:57:49.127566 15516 net.cpp:165] Memory required for data: 1288642624
I0521 19:57:49.127571 15516 layer_factory.hpp:77] Creating layer conv17_2/bn
I0521 19:57:49.127578 15516 net.cpp:100] Creating Layer conv17_2/bn
I0521 19:57:49.127581 15516 net.cpp:434] conv17_2/bn <- conv17_2
I0521 19:57:49.127588 15516 net.cpp:395] conv17_2/bn -> conv17_2 (in-place)
I0521 19:57:49.127722 15516 net.cpp:150] Setting up conv17_2/bn
I0521 19:57:49.127729 15516 net.cpp:157] Top shape: 8 128 1 1 (1024)
I0521 19:57:49.127732 15516 net.cpp:165] Memory required for data: 1288646720
I0521 19:57:49.127738 15516 layer_factory.hpp:77] Creating layer conv17_2/scale
I0521 19:57:49.127744 15516 net.cpp:100] Creating Layer conv17_2/scale
I0521 19:57:49.127748 15516 net.cpp:434] conv17_2/scale <- conv17_2
I0521 19:57:49.127754 15516 net.cpp:395] conv17_2/scale -> conv17_2 (in-place)
I0521 19:57:49.127785 15516 layer_factory.hpp:77] Creating layer conv17_2/scale
I0521 19:57:49.127867 15516 net.cpp:150] Setting up conv17_2/scale
I0521 19:57:49.127876 15516 net.cpp:157] Top shape: 8 128 1 1 (1024)
I0521 19:57:49.127878 15516 net.cpp:165] Memory required for data: 1288650816
I0521 19:57:49.127884 15516 layer_factory.hpp:77] Creating layer conv17_2/relu
I0521 19:57:49.127889 15516 net.cpp:100] Creating Layer conv17_2/relu
I0521 19:57:49.127893 15516 net.cpp:434] conv17_2/relu <- conv17_2
I0521 19:57:49.127902 15516 net.cpp:395] conv17_2/relu -> conv17_2 (in-place)
I0521 19:57:49.128623 15516 net.cpp:150] Setting up conv17_2/relu
I0521 19:57:49.128635 15516 net.cpp:157] Top shape: 8 128 1 1 (1024)
I0521 19:57:49.128639 15516 net.cpp:165] Memory required for data: 1288654912
I0521 19:57:49.128643 15516 layer_factory.hpp:77] Creating layer conv17_2_conv17_2/relu_0_split
I0521 19:57:49.128648 15516 net.cpp:100] Creating Layer conv17_2_conv17_2/relu_0_split
I0521 19:57:49.128652 15516 net.cpp:434] conv17_2_conv17_2/relu_0_split <- conv17_2
I0521 19:57:49.128659 15516 net.cpp:408] conv17_2_conv17_2/relu_0_split -> conv17_2_conv17_2/relu_0_split_0
I0521 19:57:49.128674 15516 net.cpp:408] conv17_2_conv17_2/relu_0_split -> conv17_2_conv17_2/relu_0_split_1
I0521 19:57:49.128680 15516 net.cpp:408] conv17_2_conv17_2/relu_0_split -> conv17_2_conv17_2/relu_0_split_2
I0521 19:57:49.128723 15516 net.cpp:150] Setting up conv17_2_conv17_2/relu_0_split
I0521 19:57:49.128732 15516 net.cpp:157] Top shape: 8 128 1 1 (1024)
I0521 19:57:49.128736 15516 net.cpp:157] Top shape: 8 128 1 1 (1024)
I0521 19:57:49.128741 15516 net.cpp:157] Top shape: 8 128 1 1 (1024)
I0521 19:57:49.128742 15516 net.cpp:165] Memory required for data: 1288667200
I0521 19:57:49.128746 15516 layer_factory.hpp:77] Creating layer conv11_mbox_loc
I0521 19:57:49.128757 15516 net.cpp:100] Creating Layer conv11_mbox_loc
I0521 19:57:49.128764 15516 net.cpp:434] conv11_mbox_loc <- conv11_conv11/relu_0_split_1
I0521 19:57:49.128769 15516 net.cpp:408] conv11_mbox_loc -> conv11_mbox_loc
I0521 19:57:49.130164 15516 net.cpp:150] Setting up conv11_mbox_loc
I0521 19:57:49.130177 15516 net.cpp:157] Top shape: 8 12 19 19 (34656)
I0521 19:57:49.130192 15516 net.cpp:165] Memory required for data: 1288805824
I0521 19:57:49.130199 15516 layer_factory.hpp:77] Creating layer conv11_mbox_loc_perm
I0521 19:57:49.130206 15516 net.cpp:100] Creating Layer conv11_mbox_loc_perm
I0521 19:57:49.130210 15516 net.cpp:434] conv11_mbox_loc_perm <- conv11_mbox_loc
I0521 19:57:49.130216 15516 net.cpp:408] conv11_mbox_loc_perm -> conv11_mbox_loc_perm
I0521 19:57:49.130300 15516 net.cpp:150] Setting up conv11_mbox_loc_perm
I0521 19:57:49.130308 15516 net.cpp:157] Top shape: 8 19 19 12 (34656)
I0521 19:57:49.130311 15516 net.cpp:165] Memory required for data: 1288944448
I0521 19:57:49.130316 15516 layer_factory.hpp:77] Creating layer conv11_mbox_loc_flat
I0521 19:57:49.130322 15516 net.cpp:100] Creating Layer conv11_mbox_loc_flat
I0521 19:57:49.130329 15516 net.cpp:434] conv11_mbox_loc_flat <- conv11_mbox_loc_perm
I0521 19:57:49.130336 15516 net.cpp:408] conv11_mbox_loc_flat -> conv11_mbox_loc_flat
I0521 19:57:49.130354 15516 net.cpp:150] Setting up conv11_mbox_loc_flat
I0521 19:57:49.130362 15516 net.cpp:157] Top shape: 8 4332 (34656)
I0521 19:57:49.130365 15516 net.cpp:165] Memory required for data: 1289083072
I0521 19:57:49.130368 15516 layer_factory.hpp:77] Creating layer conv11_mbox_conf_new
I0521 19:57:49.130380 15516 net.cpp:100] Creating Layer conv11_mbox_conf_new
I0521 19:57:49.130388 15516 net.cpp:434] conv11_mbox_conf_new <- conv11_conv11/relu_0_split_2
I0521 19:57:49.130393 15516 net.cpp:408] conv11_mbox_conf_new -> conv11_mbox_conf
I0521 19:57:49.131991 15516 net.cpp:150] Setting up conv11_mbox_conf_new
I0521 19:57:49.132004 15516 net.cpp:157] Top shape: 8 6 19 19 (17328)
I0521 19:57:49.132006 15516 net.cpp:165] Memory required for data: 1289152384
I0521 19:57:49.132012 15516 layer_factory.hpp:77] Creating layer conv11_mbox_conf_perm
I0521 19:57:49.132020 15516 net.cpp:100] Creating Layer conv11_mbox_conf_perm
I0521 19:57:49.132025 15516 net.cpp:434] conv11_mbox_conf_perm <- conv11_mbox_conf
I0521 19:57:49.132030 15516 net.cpp:408] conv11_mbox_conf_perm -> conv11_mbox_conf_perm
I0521 19:57:49.132104 15516 net.cpp:150] Setting up conv11_mbox_conf_perm
I0521 19:57:49.132112 15516 net.cpp:157] Top shape: 8 19 19 6 (17328)
I0521 19:57:49.132114 15516 net.cpp:165] Memory required for data: 1289221696
I0521 19:57:49.132118 15516 layer_factory.hpp:77] Creating layer conv11_mbox_conf_flat
I0521 19:57:49.132125 15516 net.cpp:100] Creating Layer conv11_mbox_conf_flat
I0521 19:57:49.132138 15516 net.cpp:434] conv11_mbox_conf_flat <- conv11_mbox_conf_perm
I0521 19:57:49.132143 15516 net.cpp:408] conv11_mbox_conf_flat -> conv11_mbox_conf_flat
I0521 19:57:49.132167 15516 net.cpp:150] Setting up conv11_mbox_conf_flat
I0521 19:57:49.132174 15516 net.cpp:157] Top shape: 8 2166 (17328)
I0521 19:57:49.132177 15516 net.cpp:165] Memory required for data: 1289291008
I0521 19:57:49.132189 15516 layer_factory.hpp:77] Creating layer conv11_mbox_priorbox
I0521 19:57:49.132196 15516 net.cpp:100] Creating Layer conv11_mbox_priorbox
I0521 19:57:49.132200 15516 net.cpp:434] conv11_mbox_priorbox <- conv11_conv11/relu_0_split_3
I0521 19:57:49.132205 15516 net.cpp:434] conv11_mbox_priorbox <- data_data_0_split_1
I0521 19:57:49.132210 15516 net.cpp:408] conv11_mbox_priorbox -> conv11_mbox_priorbox
I0521 19:57:49.132233 15516 net.cpp:150] Setting up conv11_mbox_priorbox
I0521 19:57:49.132241 15516 net.cpp:157] Top shape: 1 2 4332 (8664)
I0521 19:57:49.132243 15516 net.cpp:165] Memory required for data: 1289325664
I0521 19:57:49.132246 15516 layer_factory.hpp:77] Creating layer conv13_mbox_loc
I0521 19:57:49.132254 15516 net.cpp:100] Creating Layer conv13_mbox_loc
I0521 19:57:49.132262 15516 net.cpp:434] conv13_mbox_loc <- conv13_conv13/relu_0_split_1
I0521 19:57:49.132279 15516 net.cpp:408] conv13_mbox_loc -> conv13_mbox_loc
I0521 19:57:49.134160 15516 net.cpp:150] Setting up conv13_mbox_loc
I0521 19:57:49.134171 15516 net.cpp:157] Top shape: 8 24 10 10 (19200)
I0521 19:57:49.134176 15516 net.cpp:165] Memory required for data: 1289402464
I0521 19:57:49.134181 15516 layer_factory.hpp:77] Creating layer conv13_mbox_loc_perm
I0521 19:57:49.134187 15516 net.cpp:100] Creating Layer conv13_mbox_loc_perm
I0521 19:57:49.134191 15516 net.cpp:434] conv13_mbox_loc_perm <- conv13_mbox_loc
I0521 19:57:49.134197 15516 net.cpp:408] conv13_mbox_loc_perm -> conv13_mbox_loc_perm
I0521 19:57:49.134275 15516 net.cpp:150] Setting up conv13_mbox_loc_perm
I0521 19:57:49.134284 15516 net.cpp:157] Top shape: 8 10 10 24 (19200)
I0521 19:57:49.134286 15516 net.cpp:165] Memory required for data: 1289479264
I0521 19:57:49.134289 15516 layer_factory.hpp:77] Creating layer conv13_mbox_loc_flat
I0521 19:57:49.134295 15516 net.cpp:100] Creating Layer conv13_mbox_loc_flat
I0521 19:57:49.134299 15516 net.cpp:434] conv13_mbox_loc_flat <- conv13_mbox_loc_perm
I0521 19:57:49.134305 15516 net.cpp:408] conv13_mbox_loc_flat -> conv13_mbox_loc_flat
I0521 19:57:49.134322 15516 net.cpp:150] Setting up conv13_mbox_loc_flat
I0521 19:57:49.134330 15516 net.cpp:157] Top shape: 8 2400 (19200)
I0521 19:57:49.134333 15516 net.cpp:165] Memory required for data: 1289556064
I0521 19:57:49.134336 15516 layer_factory.hpp:77] Creating layer conv13_mbox_conf_new
I0521 19:57:49.134352 15516 net.cpp:100] Creating Layer conv13_mbox_conf_new
I0521 19:57:49.134358 15516 net.cpp:434] conv13_mbox_conf_new <- conv13_conv13/relu_0_split_2
I0521 19:57:49.134364 15516 net.cpp:408] conv13_mbox_conf_new -> conv13_mbox_conf
I0521 19:57:49.136291 15516 net.cpp:150] Setting up conv13_mbox_conf_new
I0521 19:57:49.136302 15516 net.cpp:157] Top shape: 8 12 10 10 (9600)
I0521 19:57:49.136307 15516 net.cpp:165] Memory required for data: 1289594464
I0521 19:57:49.136312 15516 layer_factory.hpp:77] Creating layer conv13_mbox_conf_perm
I0521 19:57:49.136319 15516 net.cpp:100] Creating Layer conv13_mbox_conf_perm
I0521 19:57:49.136323 15516 net.cpp:434] conv13_mbox_conf_perm <- conv13_mbox_conf
I0521 19:57:49.136328 15516 net.cpp:408] conv13_mbox_conf_perm -> conv13_mbox_conf_perm
I0521 19:57:49.136404 15516 net.cpp:150] Setting up conv13_mbox_conf_perm
I0521 19:57:49.136410 15516 net.cpp:157] Top shape: 8 10 10 12 (9600)
I0521 19:57:49.136413 15516 net.cpp:165] Memory required for data: 1289632864
I0521 19:57:49.136416 15516 layer_factory.hpp:77] Creating layer conv13_mbox_conf_flat
I0521 19:57:49.136425 15516 net.cpp:100] Creating Layer conv13_mbox_conf_flat
I0521 19:57:49.136431 15516 net.cpp:434] conv13_mbox_conf_flat <- conv13_mbox_conf_perm
I0521 19:57:49.136437 15516 net.cpp:408] conv13_mbox_conf_flat -> conv13_mbox_conf_flat
I0521 19:57:49.136466 15516 net.cpp:150] Setting up conv13_mbox_conf_flat
I0521 19:57:49.136474 15516 net.cpp:157] Top shape: 8 1200 (9600)
I0521 19:57:49.136478 15516 net.cpp:165] Memory required for data: 1289671264
I0521 19:57:49.136482 15516 layer_factory.hpp:77] Creating layer conv13_mbox_priorbox
I0521 19:57:49.136490 15516 net.cpp:100] Creating Layer conv13_mbox_priorbox
I0521 19:57:49.136498 15516 net.cpp:434] conv13_mbox_priorbox <- conv13_conv13/relu_0_split_3
I0521 19:57:49.136503 15516 net.cpp:434] conv13_mbox_priorbox <- data_data_0_split_2
I0521 19:57:49.136508 15516 net.cpp:408] conv13_mbox_priorbox -> conv13_mbox_priorbox
I0521 19:57:49.136529 15516 net.cpp:150] Setting up conv13_mbox_priorbox
I0521 19:57:49.136536 15516 net.cpp:157] Top shape: 1 2 2400 (4800)
I0521 19:57:49.136540 15516 net.cpp:165] Memory required for data: 1289690464
I0521 19:57:49.136543 15516 layer_factory.hpp:77] Creating layer conv14_2_mbox_loc
I0521 19:57:49.136554 15516 net.cpp:100] Creating Layer conv14_2_mbox_loc
I0521 19:57:49.136560 15516 net.cpp:434] conv14_2_mbox_loc <- conv14_2_conv14_2/relu_0_split_1
I0521 19:57:49.136566 15516 net.cpp:408] conv14_2_mbox_loc -> conv14_2_mbox_loc
I0521 19:57:49.138063 15516 net.cpp:150] Setting up conv14_2_mbox_loc
I0521 19:57:49.138077 15516 net.cpp:157] Top shape: 8 24 5 5 (4800)
I0521 19:57:49.138080 15516 net.cpp:165] Memory required for data: 1289709664
I0521 19:57:49.138087 15516 layer_factory.hpp:77] Creating layer conv14_2_mbox_loc_perm
I0521 19:57:49.138093 15516 net.cpp:100] Creating Layer conv14_2_mbox_loc_perm
I0521 19:57:49.138098 15516 net.cpp:434] conv14_2_mbox_loc_perm <- conv14_2_mbox_loc
I0521 19:57:49.138106 15516 net.cpp:408] conv14_2_mbox_loc_perm -> conv14_2_mbox_loc_perm
I0521 19:57:49.138183 15516 net.cpp:150] Setting up conv14_2_mbox_loc_perm
I0521 19:57:49.138190 15516 net.cpp:157] Top shape: 8 5 5 24 (4800)
I0521 19:57:49.138193 15516 net.cpp:165] Memory required for data: 1289728864
I0521 19:57:49.138196 15516 layer_factory.hpp:77] Creating layer conv14_2_mbox_loc_flat
I0521 19:57:49.138206 15516 net.cpp:100] Creating Layer conv14_2_mbox_loc_flat
I0521 19:57:49.138211 15516 net.cpp:434] conv14_2_mbox_loc_flat <- conv14_2_mbox_loc_perm
I0521 19:57:49.138217 15516 net.cpp:408] conv14_2_mbox_loc_flat -> conv14_2_mbox_loc_flat
I0521 19:57:49.138236 15516 net.cpp:150] Setting up conv14_2_mbox_loc_flat
I0521 19:57:49.138243 15516 net.cpp:157] Top shape: 8 600 (4800)
I0521 19:57:49.138247 15516 net.cpp:165] Memory required for data: 1289748064
I0521 19:57:49.138250 15516 layer_factory.hpp:77] Creating layer conv14_2_mbox_conf_new
I0521 19:57:49.138263 15516 net.cpp:100] Creating Layer conv14_2_mbox_conf_new
I0521 19:57:49.138267 15516 net.cpp:434] conv14_2_mbox_conf_new <- conv14_2_conv14_2/relu_0_split_2
I0521 19:57:49.138274 15516 net.cpp:408] conv14_2_mbox_conf_new -> conv14_2_mbox_conf
I0521 19:57:49.139683 15516 net.cpp:150] Setting up conv14_2_mbox_conf_new
I0521 19:57:49.139695 15516 net.cpp:157] Top shape: 8 12 5 5 (2400)
I0521 19:57:49.139698 15516 net.cpp:165] Memory required for data: 1289757664
I0521 19:57:49.139705 15516 layer_factory.hpp:77] Creating layer conv14_2_mbox_conf_perm
I0521 19:57:49.139712 15516 net.cpp:100] Creating Layer conv14_2_mbox_conf_perm
I0521 19:57:49.139716 15516 net.cpp:434] conv14_2_mbox_conf_perm <- conv14_2_mbox_conf
I0521 19:57:49.139722 15516 net.cpp:408] conv14_2_mbox_conf_perm -> conv14_2_mbox_conf_perm
I0521 19:57:49.139799 15516 net.cpp:150] Setting up conv14_2_mbox_conf_perm
I0521 19:57:49.139806 15516 net.cpp:157] Top shape: 8 5 5 12 (2400)
I0521 19:57:49.139809 15516 net.cpp:165] Memory required for data: 1289767264
I0521 19:57:49.139816 15516 layer_factory.hpp:77] Creating layer conv14_2_mbox_conf_flat
I0521 19:57:49.139822 15516 net.cpp:100] Creating Layer conv14_2_mbox_conf_flat
I0521 19:57:49.139827 15516 net.cpp:434] conv14_2_mbox_conf_flat <- conv14_2_mbox_conf_perm
I0521 19:57:49.139832 15516 net.cpp:408] conv14_2_mbox_conf_flat -> conv14_2_mbox_conf_flat
I0521 19:57:49.139864 15516 net.cpp:150] Setting up conv14_2_mbox_conf_flat
I0521 19:57:49.139873 15516 net.cpp:157] Top shape: 8 300 (2400)
I0521 19:57:49.139875 15516 net.cpp:165] Memory required for data: 1289776864
I0521 19:57:49.139878 15516 layer_factory.hpp:77] Creating layer conv14_2_mbox_priorbox
I0521 19:57:49.139887 15516 net.cpp:100] Creating Layer conv14_2_mbox_priorbox
I0521 19:57:49.139892 15516 net.cpp:434] conv14_2_mbox_priorbox <- conv14_2_conv14_2/relu_0_split_3
I0521 19:57:49.139899 15516 net.cpp:434] conv14_2_mbox_priorbox <- data_data_0_split_3
I0521 19:57:49.139904 15516 net.cpp:408] conv14_2_mbox_priorbox -> conv14_2_mbox_priorbox
I0521 19:57:49.139926 15516 net.cpp:150] Setting up conv14_2_mbox_priorbox
I0521 19:57:49.139932 15516 net.cpp:157] Top shape: 1 2 600 (1200)
I0521 19:57:49.139935 15516 net.cpp:165] Memory required for data: 1289781664
I0521 19:57:49.139938 15516 layer_factory.hpp:77] Creating layer conv15_2_mbox_loc
I0521 19:57:49.139947 15516 net.cpp:100] Creating Layer conv15_2_mbox_loc
I0521 19:57:49.139951 15516 net.cpp:434] conv15_2_mbox_loc <- conv15_2_conv15_2/relu_0_split_1
I0521 19:57:49.139958 15516 net.cpp:408] conv15_2_mbox_loc -> conv15_2_mbox_loc
I0521 19:57:49.141872 15516 net.cpp:150] Setting up conv15_2_mbox_loc
I0521 19:57:49.141885 15516 net.cpp:157] Top shape: 8 24 3 3 (1728)
I0521 19:57:49.141888 15516 net.cpp:165] Memory required for data: 1289788576
I0521 19:57:49.141894 15516 layer_factory.hpp:77] Creating layer conv15_2_mbox_loc_perm
I0521 19:57:49.141902 15516 net.cpp:100] Creating Layer conv15_2_mbox_loc_perm
I0521 19:57:49.141906 15516 net.cpp:434] conv15_2_mbox_loc_perm <- conv15_2_mbox_loc
I0521 19:57:49.141912 15516 net.cpp:408] conv15_2_mbox_loc_perm -> conv15_2_mbox_loc_perm
I0521 19:57:49.141994 15516 net.cpp:150] Setting up conv15_2_mbox_loc_perm
I0521 19:57:49.142001 15516 net.cpp:157] Top shape: 8 3 3 24 (1728)
I0521 19:57:49.142004 15516 net.cpp:165] Memory required for data: 1289795488
I0521 19:57:49.142009 15516 layer_factory.hpp:77] Creating layer conv15_2_mbox_loc_flat
I0521 19:57:49.142014 15516 net.cpp:100] Creating Layer conv15_2_mbox_loc_flat
I0521 19:57:49.142019 15516 net.cpp:434] conv15_2_mbox_loc_flat <- conv15_2_mbox_loc_perm
I0521 19:57:49.142025 15516 net.cpp:408] conv15_2_mbox_loc_flat -> conv15_2_mbox_loc_flat
I0521 19:57:49.142042 15516 net.cpp:150] Setting up conv15_2_mbox_loc_flat
I0521 19:57:49.142050 15516 net.cpp:157] Top shape: 8 216 (1728)
I0521 19:57:49.142052 15516 net.cpp:165] Memory required for data: 1289802400
I0521 19:57:49.142055 15516 layer_factory.hpp:77] Creating layer conv15_2_mbox_conf_new
I0521 19:57:49.142066 15516 net.cpp:100] Creating Layer conv15_2_mbox_conf_new
I0521 19:57:49.142071 15516 net.cpp:434] conv15_2_mbox_conf_new <- conv15_2_conv15_2/relu_0_split_2
I0521 19:57:49.142077 15516 net.cpp:408] conv15_2_mbox_conf_new -> conv15_2_mbox_conf
I0521 19:57:49.143460 15516 net.cpp:150] Setting up conv15_2_mbox_conf_new
I0521 19:57:49.143472 15516 net.cpp:157] Top shape: 8 12 3 3 (864)
I0521 19:57:49.143476 15516 net.cpp:165] Memory required for data: 1289805856
I0521 19:57:49.143481 15516 layer_factory.hpp:77] Creating layer conv15_2_mbox_conf_perm
I0521 19:57:49.143489 15516 net.cpp:100] Creating Layer conv15_2_mbox_conf_perm
I0521 19:57:49.143493 15516 net.cpp:434] conv15_2_mbox_conf_perm <- conv15_2_mbox_conf
I0521 19:57:49.143498 15516 net.cpp:408] conv15_2_mbox_conf_perm -> conv15_2_mbox_conf_perm
I0521 19:57:49.143573 15516 net.cpp:150] Setting up conv15_2_mbox_conf_perm
I0521 19:57:49.143579 15516 net.cpp:157] Top shape: 8 3 3 12 (864)
I0521 19:57:49.143582 15516 net.cpp:165] Memory required for data: 1289809312
I0521 19:57:49.143585 15516 layer_factory.hpp:77] Creating layer conv15_2_mbox_conf_flat
I0521 19:57:49.143590 15516 net.cpp:100] Creating Layer conv15_2_mbox_conf_flat
I0521 19:57:49.143597 15516 net.cpp:434] conv15_2_mbox_conf_flat <- conv15_2_mbox_conf_perm
I0521 19:57:49.143602 15516 net.cpp:408] conv15_2_mbox_conf_flat -> conv15_2_mbox_conf_flat
I0521 19:57:49.143625 15516 net.cpp:150] Setting up conv15_2_mbox_conf_flat
I0521 19:57:49.143640 15516 net.cpp:157] Top shape: 8 108 (864)
I0521 19:57:49.143643 15516 net.cpp:165] Memory required for data: 1289812768
I0521 19:57:49.143646 15516 layer_factory.hpp:77] Creating layer conv15_2_mbox_priorbox
I0521 19:57:49.143654 15516 net.cpp:100] Creating Layer conv15_2_mbox_priorbox
I0521 19:57:49.143661 15516 net.cpp:434] conv15_2_mbox_priorbox <- conv15_2_conv15_2/relu_0_split_3
I0521 19:57:49.143666 15516 net.cpp:434] conv15_2_mbox_priorbox <- data_data_0_split_4
I0521 19:57:49.143671 15516 net.cpp:408] conv15_2_mbox_priorbox -> conv15_2_mbox_priorbox
I0521 19:57:49.143695 15516 net.cpp:150] Setting up conv15_2_mbox_priorbox
I0521 19:57:49.143709 15516 net.cpp:157] Top shape: 1 2 216 (432)
I0521 19:57:49.143712 15516 net.cpp:165] Memory required for data: 1289814496
I0521 19:57:49.143715 15516 layer_factory.hpp:77] Creating layer conv16_2_mbox_loc
I0521 19:57:49.143724 15516 net.cpp:100] Creating Layer conv16_2_mbox_loc
I0521 19:57:49.143730 15516 net.cpp:434] conv16_2_mbox_loc <- conv16_2_conv16_2/relu_0_split_1
I0521 19:57:49.143738 15516 net.cpp:408] conv16_2_mbox_loc -> conv16_2_mbox_loc
I0521 19:57:49.145371 15516 net.cpp:150] Setting up conv16_2_mbox_loc
I0521 19:57:49.145383 15516 net.cpp:157] Top shape: 8 24 2 2 (768)
I0521 19:57:49.145387 15516 net.cpp:165] Memory required for data: 1289817568
I0521 19:57:49.145393 15516 layer_factory.hpp:77] Creating layer conv16_2_mbox_loc_perm
I0521 19:57:49.145401 15516 net.cpp:100] Creating Layer conv16_2_mbox_loc_perm
I0521 19:57:49.145404 15516 net.cpp:434] conv16_2_mbox_loc_perm <- conv16_2_mbox_loc
I0521 19:57:49.145411 15516 net.cpp:408] conv16_2_mbox_loc_perm -> conv16_2_mbox_loc_perm
I0521 19:57:49.145484 15516 net.cpp:150] Setting up conv16_2_mbox_loc_perm
I0521 19:57:49.145491 15516 net.cpp:157] Top shape: 8 2 2 24 (768)
I0521 19:57:49.145494 15516 net.cpp:165] Memory required for data: 1289820640
I0521 19:57:49.145498 15516 layer_factory.hpp:77] Creating layer conv16_2_mbox_loc_flat
I0521 19:57:49.145504 15516 net.cpp:100] Creating Layer conv16_2_mbox_loc_flat
I0521 19:57:49.145509 15516 net.cpp:434] conv16_2_mbox_loc_flat <- conv16_2_mbox_loc_perm
I0521 19:57:49.145514 15516 net.cpp:408] conv16_2_mbox_loc_flat -> conv16_2_mbox_loc_flat
I0521 19:57:49.145535 15516 net.cpp:150] Setting up conv16_2_mbox_loc_flat
I0521 19:57:49.145542 15516 net.cpp:157] Top shape: 8 96 (768)
I0521 19:57:49.145546 15516 net.cpp:165] Memory required for data: 1289823712
I0521 19:57:49.145550 15516 layer_factory.hpp:77] Creating layer conv16_2_mbox_conf_new
I0521 19:57:49.145557 15516 net.cpp:100] Creating Layer conv16_2_mbox_conf_new
I0521 19:57:49.145562 15516 net.cpp:434] conv16_2_mbox_conf_new <- conv16_2_conv16_2/relu_0_split_2
I0521 19:57:49.145568 15516 net.cpp:408] conv16_2_mbox_conf_new -> conv16_2_mbox_conf
I0521 19:57:49.147284 15516 net.cpp:150] Setting up conv16_2_mbox_conf_new
I0521 19:57:49.147296 15516 net.cpp:157] Top shape: 8 12 2 2 (384)
I0521 19:57:49.147300 15516 net.cpp:165] Memory required for data: 1289825248
I0521 19:57:49.147305 15516 layer_factory.hpp:77] Creating layer conv16_2_mbox_conf_perm
I0521 19:57:49.147312 15516 net.cpp:100] Creating Layer conv16_2_mbox_conf_perm
I0521 19:57:49.147316 15516 net.cpp:434] conv16_2_mbox_conf_perm <- conv16_2_mbox_conf
I0521 19:57:49.147325 15516 net.cpp:408] conv16_2_mbox_conf_perm -> conv16_2_mbox_conf_perm
I0521 19:57:49.147397 15516 net.cpp:150] Setting up conv16_2_mbox_conf_perm
I0521 19:57:49.147404 15516 net.cpp:157] Top shape: 8 2 2 12 (384)
I0521 19:57:49.147406 15516 net.cpp:165] Memory required for data: 1289826784
I0521 19:57:49.147410 15516 layer_factory.hpp:77] Creating layer conv16_2_mbox_conf_flat
I0521 19:57:49.147416 15516 net.cpp:100] Creating Layer conv16_2_mbox_conf_flat
I0521 19:57:49.147420 15516 net.cpp:434] conv16_2_mbox_conf_flat <- conv16_2_mbox_conf_perm
I0521 19:57:49.147425 15516 net.cpp:408] conv16_2_mbox_conf_flat -> conv16_2_mbox_conf_flat
I0521 19:57:49.147444 15516 net.cpp:150] Setting up conv16_2_mbox_conf_flat
I0521 19:57:49.147459 15516 net.cpp:157] Top shape: 8 48 (384)
I0521 19:57:49.147462 15516 net.cpp:165] Memory required for data: 1289828320
I0521 19:57:49.147466 15516 layer_factory.hpp:77] Creating layer conv16_2_mbox_priorbox
I0521 19:57:49.147473 15516 net.cpp:100] Creating Layer conv16_2_mbox_priorbox
I0521 19:57:49.147477 15516 net.cpp:434] conv16_2_mbox_priorbox <- conv16_2_conv16_2/relu_0_split_3
I0521 19:57:49.147481 15516 net.cpp:434] conv16_2_mbox_priorbox <- data_data_0_split_5
I0521 19:57:49.147486 15516 net.cpp:408] conv16_2_mbox_priorbox -> conv16_2_mbox_priorbox
I0521 19:57:49.147508 15516 net.cpp:150] Setting up conv16_2_mbox_priorbox
I0521 19:57:49.147514 15516 net.cpp:157] Top shape: 1 2 96 (192)
I0521 19:57:49.147517 15516 net.cpp:165] Memory required for data: 1289829088
I0521 19:57:49.147521 15516 layer_factory.hpp:77] Creating layer conv17_2_mbox_loc
I0521 19:57:49.147529 15516 net.cpp:100] Creating Layer conv17_2_mbox_loc
I0521 19:57:49.147532 15516 net.cpp:434] conv17_2_mbox_loc <- conv17_2_conv17_2/relu_0_split_0
I0521 19:57:49.147538 15516 net.cpp:408] conv17_2_mbox_loc -> conv17_2_mbox_loc
I0521 19:57:49.149003 15516 net.cpp:150] Setting up conv17_2_mbox_loc
I0521 19:57:49.149015 15516 net.cpp:157] Top shape: 8 24 1 1 (192)
I0521 19:57:49.149019 15516 net.cpp:165] Memory required for data: 1289829856
I0521 19:57:49.149025 15516 layer_factory.hpp:77] Creating layer conv17_2_mbox_loc_perm
I0521 19:57:49.149034 15516 net.cpp:100] Creating Layer conv17_2_mbox_loc_perm
I0521 19:57:49.149037 15516 net.cpp:434] conv17_2_mbox_loc_perm <- conv17_2_mbox_loc
I0521 19:57:49.149044 15516 net.cpp:408] conv17_2_mbox_loc_perm -> conv17_2_mbox_loc_perm
I0521 19:57:49.149118 15516 net.cpp:150] Setting up conv17_2_mbox_loc_perm
I0521 19:57:49.149125 15516 net.cpp:157] Top shape: 8 1 1 24 (192)
I0521 19:57:49.149128 15516 net.cpp:165] Memory required for data: 1289830624
I0521 19:57:49.149132 15516 layer_factory.hpp:77] Creating layer conv17_2_mbox_loc_flat
I0521 19:57:49.149137 15516 net.cpp:100] Creating Layer conv17_2_mbox_loc_flat
I0521 19:57:49.149140 15516 net.cpp:434] conv17_2_mbox_loc_flat <- conv17_2_mbox_loc_perm
I0521 19:57:49.149145 15516 net.cpp:408] conv17_2_mbox_loc_flat -> conv17_2_mbox_loc_flat
I0521 19:57:49.149165 15516 net.cpp:150] Setting up conv17_2_mbox_loc_flat
I0521 19:57:49.149171 15516 net.cpp:157] Top shape: 8 24 (192)
I0521 19:57:49.149175 15516 net.cpp:165] Memory required for data: 1289831392
I0521 19:57:49.149178 15516 layer_factory.hpp:77] Creating layer conv17_2_mbox_conf_new
I0521 19:57:49.149188 15516 net.cpp:100] Creating Layer conv17_2_mbox_conf_new
I0521 19:57:49.149190 15516 net.cpp:434] conv17_2_mbox_conf_new <- conv17_2_conv17_2/relu_0_split_1
I0521 19:57:49.149196 15516 net.cpp:408] conv17_2_mbox_conf_new -> conv17_2_mbox_conf
I0521 19:57:49.150729 15516 net.cpp:150] Setting up conv17_2_mbox_conf_new
I0521 19:57:49.150741 15516 net.cpp:157] Top shape: 8 12 1 1 (96)
I0521 19:57:49.150745 15516 net.cpp:165] Memory required for data: 1289831776
I0521 19:57:49.150751 15516 layer_factory.hpp:77] Creating layer conv17_2_mbox_conf_perm
I0521 19:57:49.150760 15516 net.cpp:100] Creating Layer conv17_2_mbox_conf_perm
I0521 19:57:49.150764 15516 net.cpp:434] conv17_2_mbox_conf_perm <- conv17_2_mbox_conf
I0521 19:57:49.150770 15516 net.cpp:408] conv17_2_mbox_conf_perm -> conv17_2_mbox_conf_perm
I0521 19:57:49.150846 15516 net.cpp:150] Setting up conv17_2_mbox_conf_perm
I0521 19:57:49.150853 15516 net.cpp:157] Top shape: 8 1 1 12 (96)
I0521 19:57:49.150856 15516 net.cpp:165] Memory required for data: 1289832160
I0521 19:57:49.150859 15516 layer_factory.hpp:77] Creating layer conv17_2_mbox_conf_flat
I0521 19:57:49.150866 15516 net.cpp:100] Creating Layer conv17_2_mbox_conf_flat
I0521 19:57:49.150869 15516 net.cpp:434] conv17_2_mbox_conf_flat <- conv17_2_mbox_conf_perm
I0521 19:57:49.150876 15516 net.cpp:408] conv17_2_mbox_conf_flat -> conv17_2_mbox_conf_flat
I0521 19:57:49.150895 15516 net.cpp:150] Setting up conv17_2_mbox_conf_flat
I0521 19:57:49.150902 15516 net.cpp:157] Top shape: 8 12 (96)
I0521 19:57:49.150913 15516 net.cpp:165] Memory required for data: 1289832544
I0521 19:57:49.150916 15516 layer_factory.hpp:77] Creating layer conv17_2_mbox_priorbox
I0521 19:57:49.150926 15516 net.cpp:100] Creating Layer conv17_2_mbox_priorbox
I0521 19:57:49.150933 15516 net.cpp:434] conv17_2_mbox_priorbox <- conv17_2_conv17_2/relu_0_split_2
I0521 19:57:49.150936 15516 net.cpp:434] conv17_2_mbox_priorbox <- data_data_0_split_6
I0521 19:57:49.150943 15516 net.cpp:408] conv17_2_mbox_priorbox -> conv17_2_mbox_priorbox
I0521 19:57:49.150967 15516 net.cpp:150] Setting up conv17_2_mbox_priorbox
I0521 19:57:49.150974 15516 net.cpp:157] Top shape: 1 2 24 (48)
I0521 19:57:49.150977 15516 net.cpp:165] Memory required for data: 1289832736
I0521 19:57:49.150981 15516 layer_factory.hpp:77] Creating layer mbox_loc
I0521 19:57:49.150990 15516 net.cpp:100] Creating Layer mbox_loc
I0521 19:57:49.150993 15516 net.cpp:434] mbox_loc <- conv11_mbox_loc_flat
I0521 19:57:49.150998 15516 net.cpp:434] mbox_loc <- conv13_mbox_loc_flat
I0521 19:57:49.151002 15516 net.cpp:434] mbox_loc <- conv14_2_mbox_loc_flat
I0521 19:57:49.151006 15516 net.cpp:434] mbox_loc <- conv15_2_mbox_loc_flat
I0521 19:57:49.151010 15516 net.cpp:434] mbox_loc <- conv16_2_mbox_loc_flat
I0521 19:57:49.151015 15516 net.cpp:434] mbox_loc <- conv17_2_mbox_loc_flat
I0521 19:57:49.151018 15516 net.cpp:408] mbox_loc -> mbox_loc
I0521 19:57:49.151041 15516 net.cpp:150] Setting up mbox_loc
I0521 19:57:49.151046 15516 net.cpp:157] Top shape: 8 7668 (61344)
I0521 19:57:49.151049 15516 net.cpp:165] Memory required for data: 1290078112
I0521 19:57:49.151053 15516 layer_factory.hpp:77] Creating layer mbox_conf
I0521 19:57:49.151058 15516 net.cpp:100] Creating Layer mbox_conf
I0521 19:57:49.151062 15516 net.cpp:434] mbox_conf <- conv11_mbox_conf_flat
I0521 19:57:49.151067 15516 net.cpp:434] mbox_conf <- conv13_mbox_conf_flat
I0521 19:57:49.151072 15516 net.cpp:434] mbox_conf <- conv14_2_mbox_conf_flat
I0521 19:57:49.151075 15516 net.cpp:434] mbox_conf <- conv15_2_mbox_conf_flat
I0521 19:57:49.151079 15516 net.cpp:434] mbox_conf <- conv16_2_mbox_conf_flat
I0521 19:57:49.151083 15516 net.cpp:434] mbox_conf <- conv17_2_mbox_conf_flat
I0521 19:57:49.151089 15516 net.cpp:408] mbox_conf -> mbox_conf
I0521 19:57:49.151105 15516 net.cpp:150] Setting up mbox_conf
I0521 19:57:49.151111 15516 net.cpp:157] Top shape: 8 3834 (30672)
I0521 19:57:49.151114 15516 net.cpp:165] Memory required for data: 1290200800
I0521 19:57:49.151118 15516 layer_factory.hpp:77] Creating layer mbox_priorbox
I0521 19:57:49.151124 15516 net.cpp:100] Creating Layer mbox_priorbox
I0521 19:57:49.151127 15516 net.cpp:434] mbox_priorbox <- conv11_mbox_priorbox
I0521 19:57:49.151131 15516 net.cpp:434] mbox_priorbox <- conv13_mbox_priorbox
I0521 19:57:49.151136 15516 net.cpp:434] mbox_priorbox <- conv14_2_mbox_priorbox
I0521 19:57:49.151139 15516 net.cpp:434] mbox_priorbox <- conv15_2_mbox_priorbox
I0521 19:57:49.151144 15516 net.cpp:434] mbox_priorbox <- conv16_2_mbox_priorbox
I0521 19:57:49.151147 15516 net.cpp:434] mbox_priorbox <- conv17_2_mbox_priorbox
I0521 19:57:49.151154 15516 net.cpp:408] mbox_priorbox -> mbox_priorbox
I0521 19:57:49.151168 15516 net.cpp:150] Setting up mbox_priorbox
I0521 19:57:49.151175 15516 net.cpp:157] Top shape: 1 2 7668 (15336)
I0521 19:57:49.151180 15516 net.cpp:165] Memory required for data: 1290262144
I0521 19:57:49.151182 15516 layer_factory.hpp:77] Creating layer mbox_loss
I0521 19:57:49.151191 15516 net.cpp:100] Creating Layer mbox_loss
I0521 19:57:49.151196 15516 net.cpp:434] mbox_loss <- mbox_loc
I0521 19:57:49.151201 15516 net.cpp:434] mbox_loss <- mbox_conf
I0521 19:57:49.151204 15516 net.cpp:434] mbox_loss <- mbox_priorbox
…
name: "MobileNet-SSD"
state {
  phase: TEST
}
layer {
  name: "data"
  type: "AnnotatedData"
  top: "data"
  top: "label"
  include {
    phase: TEST
  }
  transform_param {
    scale: 0.007843
    mean_value: 127.5
    mean_value: 127.5
    mean_value: 127.5
    resize_param {
      prob: 1
      resize_mode: WARP
      height: 300
      width: 300
      interp_mode: LINEAR
    }
  }
  data_param {
    source: "test_lmdb"
    batch_size: 8
    backend: LMDB
  }
  annotated_data_param {
    batch_sampler {
    }
    label_map_file: "labelmap.prototxt"
  }
}
layer {
  name: "conv0"
  type: "Convolution"
  bottom: "data"
  top: "conv0"
  param {
    lr_mult: 1
    decay_mult: 1
  }
  convolution_param {
    num_output: 32
    bias_term: false
    pad: 1
    kernel_size: 3
    stride: 2
    weight_filler {
      type: "msra"
    }
  }
}
layer {
  name: "conv0/bn"
  type: "BatchNorm"
  bottom: "conv0"
  top: "conv0"
}
layer {
  name: "conv0/scale"
  type: "Scale"
  bottom: "conv0"
  top: "conv0"
  param {
    lr_mult: 1
    decay_mult: 0
  }
  param {
    lr_mult: 2
    decay_mult: 0
  }
  scale_param {
    filler {
      value: 1
    }
    bias_term: true
    bias_filler {
      value: 0
    }
  }
}
layer {
  name: "conv0/relu"
  type: "ReLU"
  bottom: "conv0"
  top: "conv0"
}
layer {
  name: "conv1/dw"
  type: "Convolution"
  bottom: "conv0"
  top: "conv1/dw"
  param {
    lr_mult: 1
    decay_mult: 1
  }
  convolution_param {
    num_output: 32
    bias_term: false
    pad: 1
    kernel_size: 3
    group: 32
    weight_filler {
      type: "msra"
    }
    engine: CAFFE
  }
}
layer {
  name: "conv1/dw/bn"
  type: "BatchNorm"
  bottom: "conv1/dw"
  top: "conv1/dw"
}
layer {
  name: "conv1/dw/scale"
  type: "Scale"
  bottom: "conv1/dw"
  top: "conv1/dw"
  param {
    lr_mult: 1
    decay_mult: 0
  }
  param {
    lr_mult: 2
    decay_mult: 0
  }
  scale_param {
    filler {
      value: 1
    }
    bias_term: true
    bias_filler {
      value: 0
    }
  }
}
layer {
  name: "conv1/dw/relu"
  type: "ReLU"
  bottom: "conv1/dw"
  top: "conv1/dw"
}
layer {
  name: "conv1"
  type: "Convolution"
  bottom: "conv1/dw"
  top: "conv1"
  param {
    lr_mult: 1
    decay_mult: 1
  }
  convolution_param {
    num_output: 64
    bias_term: false
    kernel_size: 1
    weight_filler {
      type: "msra"
    }
  }
}
layer {
  name: "conv1/bn"
  type: "BatchNorm"
  bottom: "conv1"
  top: "conv1"
}
layer {
  name: "conv1/scale"
  type: "Scale"
  bottom: "conv1"
  top: "conv1"
  param {
    lr_mult: 1
    decay_mult: 0
  }
  param {
    lr_mult: 2
    decay_mult: 0
  }
  scale_param {
    filler {
      value: 1
    }
    bias_term: true
    bias_filler {
      value: 0
    }
  }
}
layer {
  name: "conv1/relu"
  type: "ReLU"
  bottom: "conv1"
  top: "conv1"
}
layer {
  name: "conv2/dw"
  type: "Convolution"
  bottom: "conv1"
  top: "conv2/dw"
  param {
    lr_mult: 1
    decay_mult: 1
  }
  convolution_param {
    num_output: 64
    bias_term: false
    pad: 1
    kernel_size: 3
    group: 64
    stride: 2
    weight_filler {
      type: "msra"
    }
    engine: CAFFE
  }
}
layer {
  name: "conv2/dw/bn"
  type: "BatchNorm"
  bottom: "conv2/dw"
  top: "conv2/dw"
}
layer {
  name: "conv2/dw/scale"
  type: "Scale"
  bottom: "conv2/dw"
  top: "conv2/dw"
  param {
    lr_mult: 1
    decay_mult: 0
  }
  param {
    lr_mult: 2
    decay_mult: 0
  }
  scale_param {
    filler {
      value: 1
    }
    bias_term: true
    bias_filler {
      value: 0
    }
  }
}
layer {
  name: "conv2/dw/relu"
  type: "ReLU"
  bottom: "conv2/dw"
  top: "conv2/dw"
}
layer {
  name: "conv2"
  type: "Convolution"
  bottom: "conv2/dw"
  top: "conv2"
  param {
    lr_mult: 1
    decay_mult: 1
  }
  convolution_param {
    num_output: 128
    bias_term: false
    kernel_size: 1
    weight_filler {
      type: "msra"
    }
  }
}
layer {
  name: "conv2/bn"
  type: "BatchNorm"
  bottom: "conv2"
  top: "conv2"
}
layer {
  name: "conv2/scale"
  type: "Scale"
  bottom: "conv2"
  top: "conv2"
  param {
    lr_mult: 1
    decay_mult: 0
  }
  param {
    lr_mult: 2
    decay_mult: 0
  }
  scale_param {
    filler {
      value: 1
    }
    bias_term: true
    bias_filler {
      value: 0
    }
  }
}
layer {
  name: "conv2/relu"
  type: "ReLU"
  bottom: "conv2"
  top: "conv2"
}
layer {
  name: "conv3/dw"
  type: "Convolution"
  bottom: "conv2"
  top: "conv3/dw"
  param {
    lr_mult: 1
    decay_mult: 1
  }
  convolution_param {
    num_output: 128
    bias_term: false
    pad: 1
    kernel_size: 3
    group: 128
    weight_filler {
      type: "msra"
    }
    engine: CAFFE
  }
}
layer {
  name: "conv3/dw/bn"
  type: "BatchNorm"
  bottom: "conv3/dw"
  top: "conv3/dw"
}
layer {
  name: "conv3/dw/scale"
  type: "Scale"
  bottom: "conv3/dw"
  top: "conv3/dw"
  param {
    lr_mult: 1
    decay_mult: 0
  }
  param {
    lr_mult: 2
    decay_mult: 0
  }
  scale_param {
    filler {
      value: 1
    }
    bias_term: true
    bias_filler {
      value: 0
    }
  }
}
layer {
  name: "conv3/dw/relu"
  type: "ReLU"
  bottom: "conv3/dw"
  top: "conv3/dw"
}
layer {
  name: "conv3"
  type: "Convolution"
  bottom: "conv3/dw"
  top: "conv3"
  param {
    lr_mult: 1
    decay_mult: 1
  }
  convolution_param {
    num_output: 128
    bias_term: false
    kernel_size: 1
    weight_filler {
      type: "msra"
    }
  }
}
layer {
  name: "conv3/bn"
  type: "BatchNorm"
  bottom: "conv3"
  top: "conv3"
}
layer {
  name: "conv3/scale"
  type: "Scale"
  bottom: "conv3"
  top: "conv3"
  param {
    lr_mult: 1
    decay_mult: 0
  }
  param {
    lr_mult: 2
    decay_mult: 0
  }
  scale_param {
    filler {
      value: 1
    }
    bias_term: true
    bias_filler {
      value: 0
    }
  }
}
layer {
  name: "conv3/relu"
  type: "ReLU"
  bottom: "conv3"
  top: "conv3"
}
layer {
  name: "conv4/dw"
  type: "Convolution"
  bottom: "conv3"
  top: "conv4/dw"
  param {
    lr_mult: 1
    decay_mult: 1
  }
  convolution_param {
    num_output: 128
    bias_term: false
    pad: 1
    kernel_size: 3
    group: 128
    stride: 2
    weight_filler {
      type: "msra"
    }
    engine: CAFFE
  }
}
layer {
  name: "conv4/dw/bn"
  type: "BatchNorm"
  bottom: "conv4/dw"
  top: "conv4/dw"
}
layer {
  name: "conv4/dw/scale"
  type: "Scale"
  bottom: "conv4/dw"
  top: "conv4/dw"
  param {
    lr_mult: 1
    decay_mult: 0
  }
  param {
    lr_mult: 2
    decay_mult: 0
  }
  scale_param {
    filler {
      value: 1
    }
    bias_term: true
    bias_filler {
      value: 0
    }
  }
}
layer {
  name: "conv4/dw/relu"
  type: "ReLU"
  bottom: "conv4/dw"
  top: "conv4/dw"
}
layer {
  name: "conv4"
  type: "Convolution"
  bottom: "conv4/dw"
  top: "conv4"
  param {
    lr_mult: 1
    decay_mult: 1
  }
  convolution_param {
    num_output: 256
    bias_term: false
    kernel_size: 1
    weight_filler {
      type: "msra"
    }
  }
}
layer {
  name: "conv4/bn"
  type: "BatchNorm"
  bottom: "conv4"
  top: "conv4"
}
layer {
  name: "conv4/scale"
  type: "Scale"
  bottom: "conv4"
  top: "conv4"
  param {
    lr_mult: 1
    decay_mult: 0
  }
  param {
    lr_mult: 2
    decay_mult: 0
  }
  scale_param {
    filler {
      value: 1
    }
    bias_term: true
    bias_filler {
      value: 0
    }
  }
}
layer {
  name: "conv4/relu"
  type: "ReLU"
  bottom: "conv4"
  top: "conv4"
}
layer {
  name: "conv5/dw"
  type: "Convolution"
  bottom: "conv4"
  top: "conv5/dw"
  param {
    lr_mult: 1
    decay_mult: 1
  }
  convolution_param {
    num_output: 256
    bias_term: false
    pad: 1
    kernel_size: 3
    group: 256
    weight_filler {
      type: "msra"
    }
    engine: CAFFE
  }
}
layer {
  name: "conv5/dw/bn"
  type: "BatchNorm"
  bottom: "conv5/dw"
  top: "conv5/dw"
}
layer {
  name: "conv5/dw/scale"
  type: "Scale"
  bottom: "conv5/dw"
  top: "conv5/dw"
  param {
    lr_mult: 1
    decay_mult: 0
  }
  param {
    lr_mult: 2
    decay_mult: 0
  }
  scale_param {
    filler {
      value: 1
    }
    bias_term: true
    bias_filler {
      value: 0
    }
  }
}
layer {
  name: "conv5/dw/relu"
  type: "ReLU"
  bottom: "conv5/dw"
  top: "conv5/dw"
}
layer {
  name: "conv5"
  type: "Convolution"
  bottom: "conv5/dw"
  top: "conv5"
  param {
    lr_mult: 1
    decay_mult: 1
  }
  convolution_param {
    num_output: 256
    bias_term: false
    kernel_size: 1
    weight_filler {
      type: "msra"
    }
  }
}
layer {
  name: "conv5/bn"
  type: "BatchNorm"
  bottom: "conv5"
  top: "conv5"
}
layer {
  name: "conv5/scale"
  type: "Scale"
  bottom: "conv5"
  top: "conv5"
  param {
    lr_mult: 1
    decay_mult: 0
  }
  param {
    lr_mult: 2
    decay_mult: 0
  }
  scale_param {
    filler {
      value: 1
    }
    bias_term: true
    bias_filler {
      value: 0
    }
  }
}
layer {
  name: "conv5/relu"
  type: "ReLU"
  bottom: "conv5"
  top: "conv5"
}
layer {
  name: "conv6/dw"
  type: "Convolution"
  bottom: "conv5"
  top: "conv6/dw"
  param {
    lr_mult: 1
    decay_mult: 1
  }
  convolution_param {
    num_output: 256
    bias_term: false
    pad: 1
    kernel_size: 3
    group: 256
    stride: 2
    weight_filler {
      type: "msra"
    }
    engine: CAFFE
  }
}
layer {
  name: "conv6/dw/bn"
  type: "BatchNorm"
  bottom: "conv6/dw"
  top: "conv6/dw"
}
layer {
  name: "conv6/dw/scale"
  type: "Scale"
  bottom: "conv6/dw"
  top: "conv6/dw"
  param {
    lr_mult: 1
    decay_mult: 0
  }
  param {
    lr_mult: 2
    decay_mult: 0
  }
  scale_param {
    filler {
      value: 1
    }
    bias_term: true
    bias_filler {
      value: 0
    }
  }
}
layer {
  name: "conv6/dw/relu"
  type: "ReLU"
  bottom: "conv6/dw"
  top: "conv6/dw"
}
layer {
  name: "conv6"
  type: "Convolution"
  bottom: "conv6/dw"
  top: "conv6"
  param {
    lr_mult: 1
    decay_mult: 1
  }
  convolution_param {
    num_output: 512
    bias_term: false
    kernel_size: 1
    weight_filler {
      type: "msra"
    }
  }
}
layer {
  name: "conv6/bn"
  type: "BatchNorm"
  bottom: "conv6"
  top: "conv6"
}
layer {
  name: "conv6/scale"
  type: "Scale"
  bottom: "conv6"
  top: "conv6"
  param {
    lr_mult: 1
    decay_mult: 0
  }
  param {
    lr_mult: 2
    decay_mult: 0
  }
  scale_param {
    filler {
      value: 1
    }
    bias_term: true
    bias_filler {
      value: 0
    }
  }
}
layer {
  name: "conv6/relu"
  type: "ReLU"
  bottom: "conv6"
  top: "conv6"
}
layer {
  name: "conv7/dw"
  type: "Convolution"
  bottom: "conv6"
  top: "conv7/dw"
  param {
    lr_mult: 1
    decay_mult: 1
  }
  convolution_param {
    num_output: 512
    bias_term: false
    pad: 1
    kernel_size: 3
    group: 512
    weight_filler {
      type: "msra"
    }
    engine: CAFFE
  }
}
layer {
  name: "conv7/dw/bn"
  type: "BatchNorm"
  bottom: "conv7/dw"
  top: "conv7/dw"
}
layer {
  name: "conv7/dw/scale"
  type: "Scale"
  bottom: "conv7/dw"
  top: "conv7/dw"
  param {
    lr_mult: 1
    decay_mult: 0
  }
  param {
    lr_mult: 2
    decay_mult: 0
  }
  scale_param {
    filler {
      value: 1
    }
    bias_term: true
    bias_filler {
      value: 0
    }
  }
}
layer {
  name: "conv7/dw/relu"
  type: "ReLU"
  bottom: "conv7/dw"
  top: "conv7/dw"
}
layer {
  name: "conv7"
  type: "Convolution"
  bottom: "conv7/dw"
  top: "conv7"
  param {
    lr_mult: 1
    decay_mult: 1
  }
  convolution_param {
    num_output: 512
    bias_term: false
    kernel_size: 1
    weight_filler {
      type: "msra"
    }
  }
}
layer {
  name: "conv7/bn"
  type: "BatchNorm"
  bottom: "conv7"
  top: "conv7"
}
layer {
  name: "conv7/scale"
  type: "Scale"
  bottom: "conv7"
  top: "conv7"
  param {
    lr_mult: 1
    decay_mult: 0
  }
  param {
    lr_mult: 2
    decay_mult: 0
  }
  scale_param {
    filler {
      value: 1
    }
    bias_term: true
    bias_filler {
      value: 0
    }
  }
}
layer {
  name: "conv7/relu"
  type: "ReLU"
  bottom: "conv7"
  top: "conv7"
}
layer {
  name: "conv8/dw"
  type: "Convolution"
  bottom: "conv7"
  top: "conv8/dw"
  param {
    lr_mult: 1
    decay_mult: 1
  }
  convolution_param {
    num_output: 512
    bias_term: false
    pad: 1
    kernel_size: 3
    group: 512
    weight_filler {
      type: "msra"
    }
    engine: CAFFE
  }
}
layer {
  name: "conv8/dw/bn"
  type: "BatchNorm"
  bottom: "conv8/dw"
  top: "conv8/dw"
}
layer {
  name: "conv8/dw/scale"
  type: "Scale"
  bottom: "conv8/dw"
  top: "conv8/dw"
  param {
    lr_mult: 1
    decay_mult: 0
  }
  param {
    lr_mult: 2
    decay_mult: 0
  }
  scale_param {
    filler {
      value: 1
    }
    bias_term: true
    bias_filler {
      value: 0
    }
  }
}
layer {
  name: "conv8/dw/relu"
  type: "ReLU"
  bottom: "conv8/dw"
  top: "conv8/dw"
}
layer {
  name: "conv8"
  type: "Convolution"
  bottom: "conv8/dw"
  top: "conv8"
  param {
    lr_mult: 1
    decay_mult: 1
  }
  convolution_param {
    num_output: 512
    bias_term: false
    kernel_size: 1
    weight_filler {
      type: "msra"
    }
  }
}
layer {
  name: "conv8/bn"
  type: "BatchNorm"
  bottom: "conv8"
  top: "conv8"
}
layer {
  name: "conv8/scale"
  type: "Scale"
  bottom: "conv8"
  top: "conv8"
  param {
    lr_mult: 1
    decay_mult: 0
  }
  param {
    lr_mult: 2
    decay_mult: 0
  }
  scale_param {
    filler {
      value: 1
    }
    bias_term: true
    bias_filler {
      value: 0
    }
  }
}
layer {
  name: "conv8/relu"
  type: "ReLU"
  bottom: "conv8"
  top: "conv8"
}
layer {
  name: "conv9/dw"
  type: "Convolution"
  bottom: "conv8"
  top: "conv9/dw"
  param {
    lr_mult: 1
    decay_mult: 1
  }
  convolution_param {
    num_output: 512
    bias_term: false
    pad: 1
    kernel_size: 3
    group: 512
    weight_filler {
      type: "msra"
    }
    engine: CAFFE
  }
}
layer {
  name: "conv9/dw/bn"
  type: "BatchNorm"
  bottom: "conv9/dw"
  top: "conv9/dw"
}
layer {
  name: "conv9/dw/scale"
  type: "Scale"
  bottom: "conv9/dw"
  top: "conv9/dw"
  param {
    lr_mult: 1
    decay_mult: 0
  }
  param {
    lr_mult: 2
    decay_mult: 0
  }
  scale_param {
    filler {
      value: 1
    }
    bias_term: true
    bias_filler {
      value: 0
    }
  }
}
layer {
  name: "conv9/dw/relu"
  type: "ReLU"
  bottom: "conv9/dw"
  top: "conv9/dw"
}
layer {
  name: "conv9"
  type: "Convolution"
  bottom: "conv9/dw"
  top: "conv9"
  param {
    lr_mult: 1
    decay_mult: 1
  }
  convolution_param {
    num_output: 512
    bias_term: false
    kernel_size: 1
    weight_filler {
      type: "msra"
    }
  }
}
layer {
  name: "conv9/bn"
  type: "BatchNorm"
  bottom: "conv9"
…
I0521 19:57:49.320255 15516 net.cpp:165] Memory required for data: 1282281536
I0521 19:57:49.320264 15516 layer_factory.hpp:77] Creating layer conv14_1/scale
I0521 19:57:49.320274 15516 net.cpp:100] Creating Layer conv14_1/scale
I0521 19:57:49.320281 15516 net.cpp:434] conv14_1/scale <- conv14_1
I0521 19:57:49.320288 15516 net.cpp:395] conv14_1/scale -> conv14_1 (in-place)
I0521 19:57:49.320333 15516 layer_factory.hpp:77] Creating layer conv14_1/scale
I0521 19:57:49.320446 15516 net.cpp:150] Setting up conv14_1/scale
I0521 19:57:49.320454 15516 net.cpp:157] Top shape: 8 256 10 10 (204800)
I0521 19:57:49.320458 15516 net.cpp:165] Memory required for data: 1283100736
I0521 19:57:49.320466 15516 layer_factory.hpp:77] Creating layer conv14_1/relu
I0521 19:57:49.320475 15516 net.cpp:100] Creating Layer conv14_1/relu
I0521 19:57:49.320482 15516 net.cpp:434] conv14_1/relu <- conv14_1
I0521 19:57:49.320492 15516 net.cpp:395] conv14_1/relu -> conv14_1 (in-place)
I0521 19:57:49.320958 15516 net.cpp:150] Setting up conv14_1/relu
I0521 19:57:49.320973 15516 net.cpp:157] Top shape: 8 256 10 10 (204800)
I0521 19:57:49.320977 15516 net.cpp:165] Memory required for data: 1283919936
I0521 19:57:49.320981 15516 layer_factory.hpp:77] Creating layer conv14_2
I0521 19:57:49.320994 15516 net.cpp:100] Creating Layer conv14_2
I0521 19:57:49.321000 15516 net.cpp:434] conv14_2 <- conv14_1
I0521 19:57:49.321008 15516 net.cpp:408] conv14_2 -> conv14_2
I0521 19:57:49.337414 15516 net.cpp:150] Setting up conv14_2
I0521 19:57:49.337435 15516 net.cpp:157] Top shape: 8 512 5 5 (102400)
I0521 19:57:49.337440 15516 net.cpp:165] Memory required for data: 1284329536
I0521 19:57:49.337447 15516 layer_factory.hpp:77] Creating layer conv14_2/bn
I0521 19:57:49.337456 15516 net.cpp:100] Creating Layer conv14_2/bn
I0521 19:57:49.337463 15516 net.cpp:434] conv14_2/bn <- conv14_2
I0521 19:57:49.337471 15516 net.cpp:395] conv14_2/bn -> conv14_2 (in-place)
I0521 19:57:49.337675 15516 net.cpp:150] Setting up conv14_2/bn
I0521 19:57:49.337685 15516 net.cpp:157] Top shape: 8 512 5 5 (102400)
I0521 19:57:49.337689 15516 net.cpp:165] Memory required for data: 1284739136
I0521 19:57:49.337714 15516 layer_factory.hpp:77] Creating layer conv14_2/scale
I0521 19:57:49.337724 15516 net.cpp:100] Creating Layer conv14_2/scale
I0521 19:57:49.337731 15516 net.cpp:434] conv14_2/scale <- conv14_2
I0521 19:57:49.337738 15516 net.cpp:395] conv14_2/scale -> conv14_2 (in-place)
I0521 19:57:49.337790 15516 layer_factory.hpp:77] Creating layer conv14_2/scale
I0521 19:57:49.337900 15516 net.cpp:150] Setting up conv14_2/scale
I0521 19:57:49.337909 15516 net.cpp:157] Top shape: 8 512 5 5 (102400)
I0521 19:57:49.337913 15516 net.cpp:165] Memory required for data: 1285148736
I0521 19:57:49.337920 15516 layer_factory.hpp:77] Creating layer conv14_2/relu
I0521 19:57:49.337932 15516 net.cpp:100] Creating Layer conv14_2/relu
I0521 19:57:49.337936 15516 net.cpp:434] conv14_2/relu <- conv14_2
I0521 19:57:49.337960 15516 net.cpp:395] conv14_2/relu -> conv14_2 (in-place)
I0521 19:57:49.338567 15516 net.cpp:150] Setting up conv14_2/relu
I0521 19:57:49.338582 15516 net.cpp:157] Top shape: 8 512 5 5 (102400)
I0521 19:57:49.338585 15516 net.cpp:165] Memory required for data: 1285558336
I0521 19:57:49.338589 15516 layer_factory.hpp:77] Creating layer conv14_2_conv14_2/relu_0_split
I0521 19:57:49.338599 15516 net.cpp:100] Creating Layer conv14_2_conv14_2/relu_0_split
I0521 19:57:49.338603 15516 net.cpp:434] conv14_2_conv14_2/relu_0_split <- conv14_2
I0521 19:57:49.338613 15516 net.cpp:408] conv14_2_conv14_2/relu_0_split -> conv14_2_conv14_2/relu_0_split_0
I0521 19:57:49.338621 15516 net.cpp:408] conv14_2_conv14_2/relu_0_split -> conv14_2_conv14_2/relu_0_split_1
I0521 19:57:49.338631 15516 net.cpp:408] conv14_2_conv14_2/relu_0_split -> conv14_2_conv14_2/relu_0_split_2
I0521 19:57:49.338639 15516 net.cpp:408] conv14_2_conv14_2/relu_0_split -> conv14_2_conv14_2/relu_0_split_3
I0521 19:57:49.338718 15516 net.cpp:150] Setting up conv14_2_conv14_2/relu_0_split
I0521 19:57:49.338727 15516 net.cpp:157] Top shape: 8 512 5 5 (102400)
I0521 19:57:49.338732 15516 net.cpp:157] Top shape: 8 512 5 5 (102400)
I0521 19:57:49.338737 15516 net.cpp:157] Top shape: 8 512 5 5 (102400)
I0521 19:57:49.338743 15516 net.cpp:157] Top shape: 8 512 5 5 (102400)
I0521 19:57:49.338749 15516 net.cpp:165] Memory required for data: 1287196736
I0521 19:57:49.338754 15516 layer_factory.hpp:77] Creating layer conv15_1
I0521 19:57:49.338766 15516 net.cpp:100] Creating Layer conv15_1
I0521 19:57:49.338773 15516 net.cpp:434] conv15_1 <- conv14_2_conv14_2/relu_0_split_0
I0521 19:57:49.338779 15516 net.cpp:408] conv15_1 -> conv15_1
I0521 19:57:49.341282 15516 net.cpp:150] Setting up conv15_1
I0521 19:57:49.341300 15516 net.cpp:157] Top shape: 8 128 5 5 (25600)
I0521 19:57:49.341305 15516 net.cpp:165] Memory required for data: 1287299136
I0521 19:57:49.341310 15516 layer_factory.hpp:77] Creating layer conv15_1/bn
I0521 19:57:49.341317 15516 net.cpp:100] Creating Layer conv15_1/bn
I0521 19:57:49.341322 15516 net.cpp:434] conv15_1/bn <- conv15_1
I0521 19:57:49.341329 15516 net.cpp:395] conv15_1/bn -> conv15_1 (in-place)
I0521 19:57:49.341521 15516 net.cpp:150] Setting up conv15_1/bn
I0521 19:57:49.341531 15516 net.cpp:157] Top shape: 8 128 5 5 (25600)
I0521 19:57:49.341536 15516 net.cpp:165] Memory required for data: 1287401536
I0521 19:57:49.341544 15516 layer_factory.hpp:77] Creating layer conv15_1/scale
I0521 19:57:49.341554 15516 net.cpp:100] Creating Layer conv15_1/scale
I0521 19:57:49.341558 15516 net.cpp:434] conv15_1/scale <- conv15_1
I0521 19:57:49.341565 15516 net.cpp:395] conv15_1/scale -> conv15_1 (in-place)
I0521 19:57:49.341607 15516 layer_factory.hpp:77] Creating layer conv15_1/scale
I0521 19:57:49.341725 15516 net.cpp:150] Setting up conv15_1/scale
I0521 19:57:49.341737 15516 net.cpp:157] Top shape: 8 128 5 5 (25600)
I0521 19:57:49.341740 15516 net.cpp:165] Memory required for data: 1287503936
I0521 19:57:49.341747 15516 layer_factory.hpp:77] Creating layer conv15_1/relu
I0521 19:57:49.341755 15516 net.cpp:100] Creating Layer conv15_1/relu
I0521 19:57:49.341761 15516 net.cpp:434] conv15_1/relu <- conv15_1
I0521 19:57:49.341768 15516 net.cpp:395] conv15_1/relu -> conv15_1 (in-place)
I0521 19:57:49.342372 15516 net.cpp:150] Setting up conv15_1/relu
I0521 19:57:49.342387 15516 net.cpp:157] Top shape: 8 128 5 5 (25600)
I0521 19:57:49.342391 15516 net.cpp:165] Memory required for data: 1287606336
I0521 19:57:49.342396 15516 layer_factory.hpp:77] Creating layer conv15_2
I0521 19:57:49.342407 15516 net.cpp:100] Creating Layer conv15_2
I0521 19:57:49.342417 15516 net.cpp:434] conv15_2 <- conv15_1
I0521 19:57:49.342424 15516 net.cpp:408] conv15_2 -> conv15_2
I0521 19:57:49.348767 15516 net.cpp:150] Setting up conv15_2
I0521 19:57:49.348784 15516 net.cpp:157] Top shape: 8 256 3 3 (18432)
I0521 19:57:49.348789 15516 net.cpp:165] Memory required for data: 1287680064
I0521 19:57:49.348795 15516 layer_factory.hpp:77] Creating layer conv15_2/bn
I0521 19:57:49.348815 15516 net.cpp:100] Creating Layer conv15_2/bn
I0521 19:57:49.348820 15516 net.cpp:434] conv15_2/bn <- conv15_2
I0521 19:57:49.348829 15516 net.cpp:395] conv15_2/bn -> conv15_2 (in-place)
I0521 19:57:49.349022 15516 net.cpp:150] Setting up conv15_2/bn
I0521 19:57:49.349033 15516 net.cpp:157] Top shape: 8 256 3 3 (18432)
I0521 19:57:49.349037 15516 net.cpp:165] Memory required for data: 1287753792
I0521 19:57:49.349045 15516 layer_factory.hpp:77] Creating layer conv15_2/scale
I0521 19:57:49.349056 15516 net.cpp:100] Creating Layer conv15_2/scale
I0521 19:57:49.349063 15516 net.cpp:434] conv15_2/scale <- conv15_2
I0521 19:57:49.349071 15516 net.cpp:395] conv15_2/scale -> conv15_2 (in-place)
I0521 19:57:49.349113 15516 layer_factory.hpp:77] Creating layer conv15_2/scale
I0521 19:57:49.349220 15516 net.cpp:150] Setting up conv15_2/scale
I0521 19:57:49.349228 15516 net.cpp:157] Top shape: 8 256 3 3 (18432)
I0521 19:57:49.349232 15516 net.cpp:165] Memory required for data: 1287827520
I0521 19:57:49.349239 15516 layer_factory.hpp:77] Creating layer conv15_2/relu
I0521 19:57:49.349264 15516 net.cpp:100] Creating Layer conv15_2/relu
I0521 19:57:49.349269 15516 net.cpp:434] conv15_2/relu <- conv15_2
I0521 19:57:49.349278 15516 net.cpp:395] conv15_2/relu -> conv15_2 (in-place)
I0521 19:57:49.349881 15516 net.cpp:150] Setting up conv15_2/relu
I0521 19:57:49.349897 15516 net.cpp:157] Top shape: 8 256 3 3 (18432)
I0521 19:57:49.349901 15516 net.cpp:165] Memory required for data: 1287901248
I0521 19:57:49.349907 15516 layer_factory.hpp:77] Creating layer conv15_2_conv15_2/relu_0_split
I0521 19:57:49.349916 15516 net.cpp:100] Creating Layer conv15_2_conv15_2/relu_0_split
I0521 19:57:49.349922 15516 net.cpp:434] conv15_2_conv15_2/relu_0_split <- conv15_2
I0521 19:57:49.349929 15516 net.cpp:408] conv15_2_conv15_2/relu_0_split -> conv15_2_conv15_2/relu_0_split_0
I0521 19:57:49.349941 15516 net.cpp:408] conv15_2_conv15_2/relu_0_split -> conv15_2_conv15_2/relu_0_split_1
I0521 19:57:49.349949 15516 net.cpp:408] conv15_2_conv15_2/relu_0_split -> conv15_2_conv15_2/relu_0_split_2
I0521 19:57:49.349956 15516 net.cpp:408] conv15_2_conv15_2/relu_0_split -> conv15_2_conv15_2/relu_0_split_3
I0521 19:57:49.350028 15516 net.cpp:150] Setting up conv15_2_conv15_2/relu_0_split
I0521 19:57:49.350035 15516 net.cpp:157] Top shape: 8 256 3 3 (18432)
I0521 19:57:49.350040 15516 net.cpp:157] Top shape: 8 256 3 3 (18432)
I0521 19:57:49.350045 15516 net.cpp:157] Top shape: 8 256 3 3 (18432)
I0521 19:57:49.350051 15516 net.cpp:157] Top shape: 8 256 3 3 (18432)
I0521 19:57:49.350054 15516 net.cpp:165] Memory required for data: 1288196160
I0521 19:57:49.350059 15516 layer_factory.hpp:77] Creating layer conv16_1
I0521 19:57:49.350070 15516 net.cpp:100] Creating Layer conv16_1
I0521 19:57:49.350077 15516 net.cpp:434] conv16_1 <- conv15_2_conv15_2/relu_0_split_0
I0521 19:57:49.350083 15516 net.cpp:408] conv16_1 -> conv16_1
I0521 19:57:49.352192 15516 net.cpp:150] Setting up conv16_1
I0521 19:57:49.352208 15516 net.cpp:157] Top shape: 8 128 3 3 (9216)
I0521 19:57:49.352213 15516 net.cpp:165] Memory required for data: 1288233024
I0521 19:57:49.352219 15516 layer_factory.hpp:77] Creating layer conv16_1/bn
I0521 19:57:49.352227 15516 net.cpp:100] Creating Layer conv16_1/bn
I0521 19:57:49.352232 15516 net.cpp:434] conv16_1/bn <- conv16_1
I0521 19:57:49.352238 15516 net.cpp:395] conv16_1/bn -> conv16_1 (in-place)
I0521 19:57:49.352421 15516 net.cpp:150] Setting up conv16_1/bn
I0521 19:57:49.352433 15516 net.cpp:157] Top shape: 8 128 3 3 (9216)
I0521 19:57:49.352437 15516 net.cpp:165] Memory required for data: 1288269888
I0521 19:57:49.352445 15516 layer_factory.hpp:77] Creating layer conv16_1/scale
I0521 19:57:49.352452 15516 net.cpp:100] Creating Layer conv16_1/scale
I0521 19:57:49.352458 15516 net.cpp:434] conv16_1/scale <- conv16_1
I0521 19:57:49.352465 15516 net.cpp:395] conv16_1/scale -> conv16_1 (in-place)
I0521 19:57:49.352504 15516 layer_factory.hpp:77] Creating layer conv16_1/scale
I0521 19:57:49.352612 15516 net.cpp:150] Setting up conv16_1/scale
I0521 19:57:49.352632 15516 net.cpp:157] Top shape: 8 128 3 3 (9216)
I0521 19:57:49.352636 15516 net.cpp:165] Memory required for data: 1288306752
I0521 19:57:49.352644 15516 layer_factory.hpp:77] Creating layer conv16_1/relu
I0521 19:57:49.352653 15516 net.cpp:100] Creating Layer conv16_1/relu
I0521 19:57:49.352658 15516 net.cpp:434] conv16_1/relu <- conv16_1
I0521 19:57:49.352665 15516 net.cpp:395] conv16_1/relu -> conv16_1 (in-place)
I0521 19:57:49.353415 15516 net.cpp:150] Setting up conv16_1/relu
I0521 19:57:49.353430 15516 net.cpp:157] Top shape: 8 128 3 3 (9216)
I0521 19:57:49.353435 15516 net.cpp:165] Memory required for data: 1288343616
I0521 19:57:49.353438 15516 layer_factory.hpp:77] Creating layer conv16_2
I0521 19:57:49.353451 15516 net.cpp:100] Creating Layer conv16_2
I0521 19:57:49.353456 15516 net.cpp:434] conv16_2 <- conv16_1
I0521 19:57:49.353462 15516 net.cpp:408] conv16_2 -> conv16_2
I0521 19:57:49.358721 15516 net.cpp:150] Setting up conv16_2
I0521 19:57:49.358736 15516 net.cpp:157] Top shape: 8 256 2 2 (8192)
I0521 19:57:49.358741 15516 net.cpp:165] Memory required for data: 1288376384
I0521 19:57:49.358747 15516 layer_factory.hpp:77] Creating layer conv16_2/bn
I0521 19:57:49.358755 15516 net.cpp:100] Creating Layer conv16_2/bn
I0521 19:57:49.358760 15516 net.cpp:434] conv16_2/bn <- conv16_2
I0521 19:57:49.358767 15516 net.cpp:395] conv16_2/bn -> conv16_2 (in-place)
I0521 19:57:49.358942 15516 net.cpp:150] Setting up conv16_2/bn
I0521 19:57:49.358952 15516 net.cpp:157] Top shape: 8 256 2 2 (8192)
I0521 19:57:49.358956 15516 net.cpp:165] Memory required for data: 1288409152
I0521 19:57:49.358963 15516 layer_factory.hpp:77] Creating layer conv16_2/scale
I0521 19:57:49.358973 15516 net.cpp:100] Creating Layer conv16_2/scale
I0521 19:57:49.358980 15516 net.cpp:434] conv16_2/scale <- conv16_2
I0521 19:57:49.358986 15516 net.cpp:395] conv16_2/scale -> conv16_2 (in-place)
I0521 19:57:49.359027 15516 layer_factory.hpp:77] Creating layer conv16_2/scale
I0521 19:57:49.359129 15516 net.cpp:150] Setting up conv16_2/scale
I0521 19:57:49.359138 15516 net.cpp:157] Top shape: 8 256 2 2 (8192)
I0521 19:57:49.359141 15516 net.cpp:165] Memory required for data: 1288441920
I0521 19:57:49.359148 15516 layer_factory.hpp:77] Creating layer conv16_2/relu
I0521 19:57:49.359156 15516 net.cpp:100] Creating Layer conv16_2/relu
I0521 19:57:49.359160 15516 net.cpp:434] conv16_2/relu <- conv16_2
I0521 19:57:49.359167 15516 net.cpp:395] conv16_2/relu -> conv16_2 (in-place)
I0521 19:57:49.359616 15516 net.cpp:150] Setting up conv16_2/relu
I0521 19:57:49.359632 15516 net.cpp:157] Top shape: 8 256 2 2 (8192)
I0521 19:57:49.359637 15516 net.cpp:165] Memory required for data: 1288474688
I0521 19:57:49.359640 15516 layer_factory.hpp:77] Creating layer conv16_2_conv16_2/relu_0_split
I0521 19:57:49.359648 15516 net.cpp:100] Creating Layer conv16_2_conv16_2/relu_0_split
I0521 19:57:49.359653 15516 net.cpp:434] conv16_2_conv16_2/relu_0_split <- conv16_2
I0521 19:57:49.359661 15516 net.cpp:408] conv16_2_conv16_2/relu_0_split -> conv16_2_conv16_2/relu_0_split_0
I0521 19:57:49.359669 15516 net.cpp:408] conv16_2_conv16_2/relu_0_split -> conv16_2_conv16_2/relu_0_split_1
I0521 19:57:49.359678 15516 net.cpp:408] conv16_2_conv16_2/relu_0_split -> conv16_2_conv16_2/relu_0_split_2
I0521 19:57:49.359685 15516 net.cpp:408] conv16_2_conv16_2/relu_0_split -> conv16_2_conv16_2/relu_0_split_3
I0521 19:57:49.359755 15516 net.cpp:150] Setting up conv16_2_conv16_2/relu_0_split
I0521 19:57:49.359763 15516 net.cpp:157] Top shape: 8 256 2 2 (8192)
I0521 19:57:49.359768 15516 net.cpp:157] Top shape: 8 256 2 2 (8192)
I0521 19:57:49.359774 15516 net.cpp:157] Top shape: 8 256 2 2 (8192)
I0521 19:57:49.359781 15516 net.cpp:157] Top shape: 8 256 2 2 (8192)
I0521 19:57:49.359786 15516 net.cpp:165] Memory required for data: 1288605760
I0521 19:57:49.359789 15516 layer_factory.hpp:77] Creating layer conv17_1
I0521 19:57:49.359800 15516 net.cpp:100] Creating Layer conv17_1
I0521 19:57:49.359807 15516 net.cpp:434] conv17_1 <- conv16_2_conv16_2/relu_0_split_0
I0521 19:57:49.359830 15516 net.cpp:408] conv17_1 -> conv17_1
I0521 19:57:49.362573 15516 net.cpp:150] Setting up conv17_1
I0521 19:57:49.362589 15516 net.cpp:157] Top shape: 8 64 2 2 (2048)
I0521 19:57:49.362594 15516 net.cpp:165] Memory required for data: 1288613952
I0521 19:57:49.362601 15516 layer_factory.hpp:77] Creating layer conv17_1/bn
I0521 19:57:49.362610 15516 net.cpp:100] Creating Layer conv17_1/bn
I0521 19:57:49.362615 15516 net.cpp:434] conv17_1/bn <- conv17_1
I0521 19:57:49.362624 15516 net.cpp:395] conv17_1/bn -> conv17_1 (in-place)
I0521 19:57:49.362819 15516 net.cpp:150] Setting up conv17_1/bn
I0521 19:57:49.362833 15516 net.cpp:157] Top shape: 8 64 2 2 (2048)
I0521 19:57:49.362835 15516 net.cpp:165] Memory required for data: 1288622144
I0521 19:57:49.362844 15516 layer_factory.hpp:77] Creating layer conv17_1/scale
I0521 19:57:49.362854 15516 net.cpp:100] Creating Layer conv17_1/scale
I0521 19:57:49.362857 15516 net.cpp:434] conv17_1/scale <- conv17_1
I0521 19:57:49.362866 15516 net.cpp:395] conv17_1/scale -> conv17_1 (in-place)
I0521 19:57:49.362908 15516 layer_factory.hpp:77] Creating layer conv17_1/scale
I0521 19:57:49.363014 15516 net.cpp:150] Setting up conv17_1/scale
I0521 19:57:49.363023 15516 net.cpp:157] Top shape: 8 64 2 2 (2048)
I0521 19:57:49.363026 15516 net.cpp:165] Memory required for data: 1288630336
I0521 19:57:49.363032 15516 layer_factory.hpp:77] Creating layer conv17_1/relu
I0521 19:57:49.363044 15516 net.cpp:100] Creating Layer conv17_1/relu
I0521 19:57:49.363049 15516 net.cpp:434] conv17_1/relu <- conv17_1
I0521 19:57:49.363056 15516 net.cpp:395] conv17_1/relu -> conv17_1 (in-place)
I0521 19:57:49.363641 15516 net.cpp:150] Setting up conv17_1/relu
I0521 19:57:49.363656 15516 net.cpp:157] Top shape: 8 64 2 2 (2048)
I0521 19:57:49.363659 15516 net.cpp:165] Memory required for data: 1288638528
I0521 19:57:49.363663 15516 layer_factory.hpp:77] Creating layer conv17_2
I0521 19:57:49.363675 15516 net.cpp:100] Creating Layer conv17_2
I0521 19:57:49.363680 15516 net.cpp:434] conv17_2 <- conv17_1
I0521 19:57:49.363687 15516 net.cpp:408] conv17_2 -> conv17_2
I0521 19:57:49.366557 15516 net.cpp:150] Setting up conv17_2
I0521 19:57:49.366573 15516 net.cpp:157] Top shape: 8 128 1 1 (1024)
I0521 19:57:49.366578 15516 net.cpp:165] Memory required for data: 1288642624
I0521 19:57:49.366585 15516 layer_factory.hpp:77] Creating layer conv17_2/bn
I0521 19:57:49.366593 15516 net.cpp:100] Creating Layer conv17_2/bn
I0521 19:57:49.366597 15516 net.cpp:434] conv17_2/bn <- conv17_2
I0521 19:57:49.366603 15516 net.cpp:395] conv17_2/bn -> conv17_2 (in-place)
I0521 19:57:49.366773 15516 net.cpp:150] Setting up conv17_2/bn
I0521 19:57:49.366783 15516 net.cpp:157] Top shape: 8 128 1 1 (1024)
I0521 19:57:49.366787 15516 net.cpp:165] Memory required for data: 1288646720
I0521 19:57:49.366798 15516 layer_factory.hpp:77] Creating layer conv17_2/scale
I0521 19:57:49.366809 15516 net.cpp:100] Creating Layer conv17_2/scale
I0521 19:57:49.366814 15516 net.cpp:434] conv17_2/scale <- conv17_2
I0521 19:57:49.366819 15516 net.cpp:395] conv17_2/scale -> conv17_2 (in-place)
I0521 19:57:49.366859 15516 layer_factory.hpp:77] Creating layer conv17_2/scale
I0521 19:57:49.366961 15516 net.cpp:150] Setting up conv17_2/scale
I0521 19:57:49.366969 15516 net.cpp:157] Top shape: 8 128 1 1 (1024)
I0521 19:57:49.366972 15516 net.cpp:165] Memory required for data: 1288650816
I0521 19:57:49.366978 15516 layer_factory.hpp:77] Creating layer conv17_2/relu
I0521 19:57:49.366987 15516 net.cpp:100] Creating Layer conv17_2/relu
I0521 19:57:49.366994 15516 net.cpp:434] conv17_2/relu <- conv17_2
I0521 19:57:49.367000 15516 net.cpp:395] conv17_2/relu -> conv17_2 (in-place)
I0521 19:57:49.367563 15516 net.cpp:150] Setting up conv17_2/relu
I0521 19:57:49.367579 15516 net.cpp:157] Top shape: 8 128 1 1 (1024)
I0521 19:57:49.367583 15516 net.cpp:165] Memory required for data: 1288654912
I0521 19:57:49.367586 15516 layer_factory.hpp:77] Creating layer conv17_2_conv17_2/relu_0_split
I0521 19:57:49.367594 15516 net.cpp:100] Creating Layer conv17_2_conv17_2/relu_0_split
I0521 19:57:49.367609 15516 net.cpp:434] conv17_2_conv17_2/relu_0_split <- conv17_2
I0521 19:57:49.367619 15516 net.cpp:408] conv17_2_conv17_2/relu_0_split -> conv17_2_conv17_2/relu_0_split_0
I0521 19:57:49.367638 15516 net.cpp:408] conv17_2_conv17_2/relu_0_split -> conv17_2_conv17_2/relu_0_split_1
I0521 19:57:49.367646 15516 net.cpp:408] conv17_2_conv17_2/relu_0_split -> conv17_2_conv17_2/relu_0_split_2
I0521 19:57:49.367703 15516 net.cpp:150] Setting up conv17_2_conv17_2/relu_0_split
I0521 19:57:49.367712 15516 net.cpp:157] Top shape: 8 128 1 1 (1024)
I0521 19:57:49.367717 15516 net.cpp:157] Top shape: 8 128 1 1 (1024)
I0521 19:57:49.367722 15516 net.cpp:157] Top shape: 8 128 1 1 (1024)
I0521 19:57:49.367727 15516 net.cpp:165] Memory required for data: 1288667200
I0521 19:57:49.367736 15516 layer_factory.hpp:77] Creating layer conv11_mbox_loc
I0521 19:57:49.367748 15516 net.cpp:100] Creating Layer conv11_mbox_loc
I0521 19:57:49.367756 15516 net.cpp:434] conv11_mbox_loc <- conv11_conv11/relu_0_split_1
I0521 19:57:49.367766 15516 net.cpp:408] conv11_mbox_loc -> conv11_mbox_loc
I0521 19:57:49.370312 15516 net.cpp:150] Setting up conv11_mbox_loc
I0521 19:57:49.370329 15516 net.cpp:157] Top shape: 8 12 19 19 (34656)
I0521 19:57:49.370333 15516 net.cpp:165] Memory required for data: 1288805824
I0521 19:57:49.370342 15516 layer_factory.hpp:77] Creating layer conv11_mbox_loc_perm
I0521 19:57:49.370353 15516 net.cpp:100] Creating Layer conv11_mbox_loc_perm
I0521 19:57:49.370360 15516 net.cpp:434] conv11_mbox_loc_perm <- conv11_mbox_loc
I0521 19:57:49.370369 15516 net.cpp:408] conv11_mbox_loc_perm -> conv11_mbox_loc_perm
I0521 19:57:49.370473 15516 net.cpp:150] Setting up conv11_mbox_loc_perm
I0521 19:57:49.370482 15516 net.cpp:157] Top shape: 8 19 19 12 (34656)
I0521 19:57:49.370486 15516 net.cpp:165] Memory required for data: 1288944448
I0521 19:57:49.370489 15516 layer_factory.hpp:77] Creating layer conv11_mbox_loc_flat
I0521 19:57:49.370498 15516 net.cpp:100] Creating Layer conv11_mbox_loc_flat
I0521 19:57:49.370505 15516 net.cpp:434] conv11_mbox_loc_flat <- conv11_mbox_loc_perm
I0521 19:57:49.370513 15516 net.cpp:408] conv11_mbox_loc_flat -> conv11_mbox_loc_flat
I0521 19:57:49.370540 15516 net.cpp:150] Setting up conv11_mbox_loc_flat
I0521 19:57:49.370548 15516 net.cpp:157] Top shape: 8 4332 (34656)
I0521 19:57:49.370551 15516 net.cpp:165] Memory required for data: 1289083072
I0521 19:57:49.370555 15516 layer_factory.hpp:77] Creating layer conv11_mbox_conf_new
I0521 19:57:49.370568 15516 net.cpp:100] Creating Layer conv11_mbox_conf_new
I0521 19:57:49.370573 15516 net.cpp:434] conv11_mbox_conf_new <- conv11_conv11/relu_0_split_2
I0521 19:57:49.370582 15516 net.cpp:408] conv11_mbox_conf_new -> conv11_mbox_conf
I0521 19:57:49.372589 15516 net.cpp:150] Setting up conv11_mbox_conf_new
I0521 19:57:49.372606 15516 net.cpp:157] Top shape: 8 6 19 19 (17328)
I0521 19:57:49.372611 15516 net.cpp:165] Memory required for data: 1289152384
I0521 19:57:49.372618 15516 layer_factory.hpp:77] Creating layer conv11_mbox_conf_perm
I0521 19:57:49.372627 15516 net.cpp:100] Creating Layer conv11_mbox_conf_perm
I0521 19:57:49.372630 15516 net.cpp:434] conv11_mbox_conf_perm <- conv11_mbox_conf
I0521 19:57:49.372640 15516 net.cpp:408] conv11_mbox_conf_perm -> conv11_mbox_conf_perm
I0521 19:57:49.372738 15516 net.cpp:150] Setting up conv11_mbox_conf_perm
I0521 19:57:49.372748 15516 net.cpp:157] Top shape: 8 19 19 6 (17328)
I0521 19:57:49.372752 15516 net.cpp:165] Memory required for data: 1289221696
I0521 19:57:49.372756 15516 layer_factory.hpp:77] Creating layer conv11_mbox_conf_flat
I0521 19:57:49.372766 15516 net.cpp:100] Creating Layer conv11_mbox_conf_flat
I0521 19:57:49.372769 15516 net.cpp:434] conv11_mbox_conf_flat <- conv11_mbox_conf_perm
I0521 19:57:49.372777 15516 net.cpp:408] conv11_mbox_conf_flat -> conv11_mbox_conf_flat
I0521 19:57:49.372802 15516 net.cpp:150] Setting up conv11_mbox_conf_flat
I0521 19:57:49.372809 15516 net.cpp:157] Top shape: 8 2166 (17328)
I0521 19:57:49.372813 15516 net.cpp:165] Memory required for data: 1289291008
I0521 19:57:49.372830 15516 layer_factory.hpp:77] Creating layer conv11_mbox_priorbox
I0521 19:57:49.372844 15516 net.cpp:100] Creating Layer conv11_mbox_priorbox
I0521 19:57:49.372850 15516 net.cpp:434] conv11_mbox_priorbox <- conv11_conv11/relu_0_split_3
I0521 19:57:49.372856 15516 net.cpp:434] conv11_mbox_priorbox <- data_data_0_split_1
I0521 19:57:49.372866 15516 net.cpp:408] conv11_mbox_priorbox -> conv11_mbox_priorbox
I0521 19:57:49.372895 15516 net.cpp:150] Setting up conv11_mbox_priorbox
I0521 19:57:49.372903 15516 net.cpp:157] Top shape: 1 2 4332 (8664)
I0521 19:57:49.372906 15516 net.cpp:165] Memory required for data: 1289325664
I0521 19:57:49.372910 15516 layer_factory.hpp:77] Creating layer conv13_mbox_loc
I0521 19:57:49.372922 15516 net.cpp:100] Creating Layer conv13_mbox_loc
I0521 19:57:49.372928 15516 net.cpp:434] conv13_mbox_loc <- conv13_conv13/relu_0_split_1
I0521 19:57:49.372936 15516 net.cpp:408] conv13_mbox_loc -> conv13_mbox_loc
I0521 19:57:49.375154 15516 net.cpp:150] Setting up conv13_mbox_loc
I0521 19:57:49.375170 15516 net.cpp:157] Top shape: 8 24 10 10 (19200)
I0521 19:57:49.375174 15516 net.cpp:165] Memory required for data: 1289402464
I0521 19:57:49.375183 15516 layer_factory.hpp:77] Creating layer conv13_mbox_loc_perm
I0521 19:57:49.375193 15516 net.cpp:100] Creating Layer conv13_mbox_loc_perm
I0521 19:57:49.375200 15516 net.cpp:434] conv13_mbox_loc_perm <- conv13_mbox_loc
I0521 19:57:49.375207 15516 net.cpp:408] conv13_mbox_loc_perm -> conv13_mbox_loc_perm
I0521 19:57:49.375311 15516 net.cpp:150] Setting up conv13_mbox_loc_perm
I0521 19:57:49.375320 15516 net.cpp:157] Top shape: 8 10 10 24 (19200)
I0521 19:57:49.375324 15516 net.cpp:165] Memory required for data: 1289479264
I0521 19:57:49.375330 15516 layer_factory.hpp:77] Creating layer conv13_mbox_loc_flat
I0521 19:57:49.375336 15516 net.cpp:100] Creating Layer conv13_mbox_loc_flat
I0521 19:57:49.375344 15516 net.cpp:434] conv13_mbox_loc_flat <- conv13_mbox_loc_perm
I0521 19:57:49.375353 15516 net.cpp:408] conv13_mbox_loc_flat -> conv13_mbox_loc_flat
I0521 19:57:49.375378 15516 net.cpp:150] Setting up conv13_mbox_loc_flat
I0521 19:57:49.375386 15516 net.cpp:157] Top shape: 8 2400 (19200)
I0521 19:57:49.375391 15516 net.cpp:165] Memory required for data: 1289556064
I0521 19:57:49.375396 15516 layer_factory.hpp:77] Creating layer conv13_mbox_conf_new
I0521 19:57:49.375406 15516 net.cpp:100] Creating Layer conv13_mbox_conf_new
I0521 19:57:49.375411 15516 net.cpp:434] conv13_mbox_conf_new <- conv13_conv13/relu_0_split_2
I0521 19:57:49.375418 15516 net.cpp:408] conv13_mbox_conf_new -> conv13_mbox_conf
I0521 19:57:49.377941 15516 net.cpp:150] Setting up conv13_mbox_conf_new
I0521 19:57:49.377957 15516 net.cpp:157] Top shape: 8 12 10 10 (9600)
I0521 19:57:49.377961 15516 net.cpp:165] Memory required for data: 1289594464
I0521 19:57:49.377971 15516 layer_factory.hpp:77] Creating layer conv13_mbox_conf_perm
I0521 19:57:49.377980 15516 net.cpp:100] Creating Layer conv13_mbox_conf_perm
I0521 19:57:49.377986 15516 net.cpp:434] conv13_mbox_conf_perm <- conv13_mbox_conf
I0521 19:57:49.377995 15516 net.cpp:408] conv13_mbox_conf_perm -> conv13_mbox_conf_perm
I0521 19:57:49.378094 15516 net.cpp:150] Setting up conv13_mbox_conf_perm
I0521 19:57:49.378103 15516 net.cpp:157] Top shape: 8 10 10 12 (9600)
I0521 19:57:49.378108 15516 net.cpp:165] Memory required for data: 1289632864
I0521 19:57:49.378111 15516 layer_factory.hpp:77] Creating layer conv13_mbox_conf_flat
I0521 19:57:49.378119 15516 net.cpp:100] Creating Layer conv13_mbox_conf_flat
I0521 19:57:49.378124 15516 net.cpp:434] conv13_mbox_conf_flat <- conv13_mbox_conf_perm
I0521 19:57:49.378132 15516 net.cpp:408] conv13_mbox_conf_flat -> conv13_mbox_conf_flat
I0521 19:57:49.378155 15516 net.cpp:150] Setting up conv13_mbox_conf_flat
I0521 19:57:49.378162 15516 net.cpp:157] Top shape: 8 1200 (9600)
I0521 19:57:49.378166 15516 net.cpp:165] Memory required for data: 1289671264
I0521 19:57:49.378170 15516 layer_factory.hpp:77] Creating layer conv13_mbox_priorbox
I0521 19:57:49.378180 15516 net.cpp:100] Creating Layer conv13_mbox_priorbox
I0521 19:57:49.378196 15516 net.cpp:434] conv13_mbox_priorbox <- conv13_conv13/relu_0_split_3
I0521 19:57:49.378202 15516 net.cpp:434] conv13_mbox_priorbox <- data_data_0_split_2
I0521 19:57:49.378211 15516 net.cpp:408] conv13_mbox_priorbox -> conv13_mbox_priorbox
I0521 19:57:49.378239 15516 net.cpp:150] Setting up conv13_mbox_priorbox
I0521 19:57:49.378247 15516 net.cpp:157] Top shape: 1 2 2400 (4800)
I0521 19:57:49.378250 15516 net.cpp:165] Memory required for data: 1289690464
I0521 19:57:49.378254 15516 layer_factory.hpp:77] Creating layer conv14_2_mbox_loc
I0521 19:57:49.378268 15516 net.cpp:100] Creating Layer conv14_2_mbox_loc
I0521 19:57:49.378274 15516 net.cpp:434] conv14_2_mbox_loc <- conv14_2_conv14_2/relu_0_split_1
I0521 19:57:49.378281 15516 net.cpp:408] conv14_2_mbox_loc -> conv14_2_mbox_loc
I0521 19:57:49.380153 15516 net.cpp:150] Setting up conv14_2_mbox_loc
I0521 19:57:49.380168 15516 net.cpp:157] Top shape: 8 24 5 5 (4800)
I0521 19:57:49.380175 15516 net.cpp:165] Memory required for data: 1289709664
I0521 19:57:49.380182 15516 layer_factory.hpp:77] Creating layer conv14_2_mbox_loc_perm
I0521 19:57:49.380192 15516 net.cpp:100] Creating Layer conv14_2_mbox_loc_perm
I0521 19:57:49.380198 15516 net.cpp:434] conv14_2_mbox_loc_perm <- conv14_2_mbox_loc
I0521 19:57:49.380208 15516 net.cpp:408] conv14_2_mbox_loc_perm -> conv14_2_mbox_loc_perm
I0521 19:57:49.380309 15516 net.cpp:150] Setting up conv14_2_mbox_loc_perm
I0521 19:57:49.380318 15516 net.cpp:157] Top shape: 8 5 5 24 (4800)
I0521 19:57:49.380323 15516 net.cpp:165] Memory required for data: 1289728864
I0521 19:57:49.380329 15516 layer_factory.hpp:77] Creating layer conv14_2_mbox_loc_flat
I0521 19:57:49.380337 15516 net.cpp:100] Creating Layer conv14_2_mbox_loc_flat
I0521 19:57:49.380342 15516 net.cpp:434] conv14_2_mbox_loc_flat <- conv14_2_mbox_loc_perm
I0521 19:57:49.380352 15516 net.cpp:408] conv14_2_mbox_loc_flat -> conv14_2_mbox_loc_flat
I0521 19:57:49.380379 15516 net.cpp:150] Setting up conv14_2_mbox_loc_flat
I0521 19:57:49.380386 15516 net.cpp:157] Top shape: 8 600 (4800)
I0521 19:57:49.380390 15516 net.cpp:165] Memory required for data: 1289748064
I0521 19:57:49.380394 15516 layer_factory.hpp:77] Creating layer conv14_2_mbox_conf_new
I0521 19:57:49.380406 15516 net.cpp:100] Creating Layer conv14_2_mbox_conf_new
I0521 19:57:49.380412 15516 net.cpp:434] conv14_2_mbox_conf_new <- conv14_2_conv14_2/relu_0_split_2
I0521 19:57:49.380421 15516 net.cpp:408] conv14_2_mbox_conf_new -> conv14_2_mbox_conf
I0521 19:57:49.382411 15516 net.cpp:150] Setting up conv14_2_mbox_conf_new
I0521 19:57:49.382426 15516 net.cpp:157] Top shape: 8 12 5 5 (2400)
I0521 19:57:49.382431 15516 net.cpp:165] Memory required for data: 1289757664
I0521 19:57:49.382438 15516 layer_factory.hpp:77] Creating layer conv14_2_mbox_conf_perm
I0521 19:57:49.382448 15516 net.cpp:100] Creating Layer conv14_2_mbox_conf_perm
I0521 19:57:49.382455 15516 net.cpp:434] conv14_2_mbox_conf_perm <- conv14_2_mbox_conf
I0521 19:57:49.382464 15516 net.cpp:408] conv14_2_mbox_conf_perm -> conv14_2_mbox_conf_perm
I0521 19:57:49.382557 15516 net.cpp:150] Setting up conv14_2_mbox_conf_perm
I0521 19:57:49.382566 15516 net.cpp:157] Top shape: 8 5 5 12 (2400)
I0521 19:57:49.382570 15516 net.cpp:165] Memory required for data: 1289767264
I0521 19:57:49.382575 15516 layer_factory.hpp:77] Creating layer conv14_2_mbox_conf_flat
I0521 19:57:49.382581 15516 net.cpp:100] Creating Layer conv14_2_mbox_conf_flat
I0521 19:57:49.382586 15516 net.cpp:434] conv14_2_mbox_conf_flat <- conv14_2_mbox_conf_perm
I0521 19:57:49.382596 15516 net.cpp:408] conv14_2_mbox_conf_flat -> conv14_2_mbox_conf_flat
I0521 19:57:49.382623 15516 net.cpp:150] Setting up conv14_2_mbox_conf_flat
I0521 19:57:49.382632 15516 net.cpp:157] Top shape: 8 300 (2400)
I0521 19:57:49.382637 15516 net.cpp:165] Memory required for data: 1289776864
I0521 19:57:49.382640 15516 layer_factory.hpp:77] Creating layer conv14_2_mbox_priorbox
I0521 19:57:49.382648 15516 net.cpp:100] Creating Layer conv14_2_mbox_priorbox
I0521 19:57:49.382666 15516 net.cpp:434] conv14_2_mbox_priorbox <- conv14_2_conv14_2/relu_0_split_3
I0521 19:57:49.382673 15516 net.cpp:434] conv14_2_mbox_priorbox <- data_data_0_split_3
I0521 19:57:49.382681 15516 net.cpp:408] conv14_2_mbox_priorbox -> conv14_2_mbox_priorbox
I0521 19:57:49.382712 15516 net.cpp:150] Setting up conv14_2_mbox_priorbox
I0521 19:57:49.382720 15516 net.cpp:157] Top shape: 1 2 600 (1200)
I0521 19:57:49.382725 15516 net.cpp:165] Memory required for data: 1289781664
I0521 19:57:49.382728 15516 layer_factory.hpp:77] Creating layer conv15_2_mbox_loc
I0521 19:57:49.382740 15516 net.cpp:100] Creating Layer conv15_2_mbox_loc
I0521 19:57:49.382747 15516 net.cpp:434] conv15_2_mbox_loc <- conv15_2_conv15_2/relu_0_split_1
I0521 19:57:49.382755 15516 net.cpp:408] conv15_2_mbox_loc -> conv15_2_mbox_loc
I0521 19:57:49.384692 15516 net.cpp:150] Setting up conv15_2_mbox_loc
I0521 19:57:49.384707 15516 net.cpp:157] Top shape: 8 24 3 3 (1728)
I0521 19:57:49.384713 15516 net.cpp:165] Memory required for data: 1289788576
I0521 19:57:49.384721 15516 layer_factory.hpp:77] Creating layer conv15_2_mbox_loc_perm
I0521 19:57:49.384732 15516 net.cpp:100] Creating Layer conv15_2_mbox_loc_perm
I0521 19:57:49.384738 15516 net.cpp:434] conv15_2_mbox_loc_perm <- conv15_2_mbox_loc
I0521 19:57:49.384747 15516 net.cpp:408] conv15_2_mbox_loc_perm -> conv15_2_mbox_loc_perm
I0521 19:57:49.384850 15516 net.cpp:150] Setting up conv15_2_mbox_loc_perm
I0521 19:57:49.384858 15516 net.cpp:157] Top shape: 8 3 3 24 (1728)
I0521 19:57:49.384862 15516 net.cpp:165] Memory required for data: 1289795488
I0521 19:57:49.384866 15516 layer_factory.hpp:77] Creating layer conv15_2_mbox_loc_flat
I0521 19:57:49.384873 15516 net.cpp:100] Creating Layer conv15_2_mbox_loc_flat
I0521 19:57:49.384877 15516 net.cpp:434] conv15_2_mbox_loc_flat <- conv15_2_mbox_loc_perm
I0521 19:57:49.384886 15516 net.cpp:408] conv15_2_mbox_loc_flat -> conv15_2_mbox_loc_flat
I0521 19:57:49.384912 15516 net.cpp:150] Setting up conv15_2_mbox_loc_flat
I0521 19:57:49.384922 15516 net.cpp:157] Top shape: 8 216 (1728)
I0521 19:57:49.384925 15516 net.cpp:165] Memory required for data: 1289802400
I0521 19:57:49.384930 15516 layer_factory.hpp:77] Creating layer conv15_2_mbox_conf_new
I0521 19:57:49.384941 15516 net.cpp:100] Creating Layer conv15_2_mbox_conf_new
I0521 19:57:49.384949 15516 net.cpp:434] conv15_2_mbox_conf_new <- conv15_2_conv15_2/relu_0_split_2
I0521 19:57:49.384958 15516 net.cpp:408] conv15_2_mbox_conf_new -> conv15_2_mbox_conf
I0521 19:57:49.389219 15516 net.cpp:150] Setting up conv15_2_mbox_conf_new
I0521 19:57:49.389235 15516 net.cpp:157] Top shape: 8 12 3 3 (864)
I0521 19:57:49.389245 15516 net.cpp:165] Memory required for data: 1289805856
I0521 19:57:49.389252 15516 layer_factory.hpp:77] Creating layer conv15_2_mbox_conf_perm
I0521 19:57:49.389262 15516 net.cpp:100] Creating Layer conv15_2_mbox_conf_perm
I0521 19:57:49.389268 15516 net.cpp:434] conv15_2_mbox_conf_perm <- conv15_2_mbox_conf
I0521 19:57:49.389277 15516 net.cpp:408] conv15_2_mbox_conf_perm -> conv15_2_mbox_conf_perm
I0521 19:57:49.389379 15516 net.cpp:150] Setting up conv15_2_mbox_conf_perm
I0521 19:57:49.389386 15516 net.cpp:157] Top shape: 8 3 3 12 (864)
I0521 19:57:49.389390 15516 net.cpp:165] Memory required for data: 1289809312
I0521 19:57:49.389394 15516 layer_factory.hpp:77] Creating layer conv15_2_mbox_conf_flat
I0521 19:57:49.389405 15516 net.cpp:100] Creating Layer conv15_2_mbox_conf_flat
I0521 19:57:49.389411 15516 net.cpp:434] conv15_2_mbox_conf_flat <- conv15_2_mbox_conf_perm
I0521 19:57:49.389417 15516 net.cpp:408] conv15_2_mbox_conf_flat -> conv15_2_mbox_conf_flat
I0521 19:57:49.389441 15516 net.cpp:150] Setting up conv15_2_mbox_conf_flat
I0521 19:57:49.389448 15516 net.cpp:157] Top shape: 8 108 (864)
I0521 19:57:49.389452 15516 net.cpp:165] Memory required for data: 1289812768
I0521 19:57:49.389456 15516 layer_factory.hpp:77] Creating layer conv15_2_mbox_priorbox
I0521 19:57:49.389467 15516 net.cpp:100] Creating Layer conv15_2_mbox_priorbox
I0521 19:57:49.389474 15516 net.cpp:434] conv15_2_mbox_priorbox <- conv15_2_conv15_2/relu_0_split_3
I0521 19:57:49.389492 15516 net.cpp:434] conv15_2_mbox_priorbox <- data_data_0_split_4
I0521 19:57:49.389501 15516 net.cpp:408] conv15_2_mbox_priorbox -> conv15_2_mbox_priorbox
I0521 19:57:49.389531 15516 net.cpp:150] Setting up conv15_2_mbox_priorbox
I0521 19:57:49.389539 15516 net.cpp:157] Top shape: 1 2 216 (432)
I0521 19:57:49.389542 15516 net.cpp:165] Memory required for data: 1289814496
I0521 19:57:49.389549 15516 layer_factory.hpp:77] Creating layer conv16_2_mbox_loc
I0521 19:57:49.389561 15516 net.cpp:100] Creating Layer conv16_2_mbox_loc
I0521 19:57:49.389570 15516 net.cpp:434] conv16_2_mbox_loc <- conv16_2_conv16_2/relu_0_split_1
I0521 19:57:49.389577 15516 net.cpp:408] conv16_2_mbox_loc -> conv16_2_mbox_loc
I0521 19:57:49.399009 15516 net.cpp:150] Setting up conv16_2_mbox_loc
I0521 19:57:49.399024 15516 net.cpp:157] Top shape: 8 24 2 2 (768)
I0521 19:57:49.399029 15516 net.cpp:165] Memory required for data: 1289817568
I0521 19:57:49.399037 15516 layer_factory.hpp:77] Creating layer conv16_2_mbox_loc_perm
I0521 19:57:49.399047 15516 net.cpp:100] Creating Layer conv16_2_mbox_loc_perm
I0521 19:57:49.399055 15516 net.cpp:434] conv16_2_mbox_loc_perm <- conv16_2_mbox_loc
I0521 19:57:49.399063 15516 net.cpp:408] conv16_2_mbox_loc_perm -> conv16_2_mbox_loc_perm
I0521 19:57:49.399158 15516 net.cpp:150] Setting up conv16_2_mbox_loc_perm
I0521 19:57:49.399166 15516 net.cpp:157] Top shape: 8 2 2 24 (768)
I0521 19:57:49.399169 15516 net.cpp:165] Memory required for data: 1289820640
I0521 19:57:49.399173 15516 layer_factory.hpp:77] Creating layer conv16_2_mbox_loc_flat
I0521 19:57:49.399180 15516 net.cpp:100] Creating Layer conv16_2_mbox_loc_flat
I0521 19:57:49.399186 15516 net.cpp:434] conv16_2_mbox_loc_flat <- conv16_2_mbox_loc_perm
I0521 19:57:49.399195 15516 net.cpp:408] conv16_2_mbox_loc_flat -> conv16_2_mbox_loc_flat
I0521 19:57:49.399219 15516 net.cpp:150] Setting up conv16_2_mbox_loc_flat
I0521 19:57:49.399225 15516 net.cpp:157] Top shape: 8 96 (768)
I0521 19:57:49.399230 15516 net.cpp:165] Memory required for data: 1289823712
I0521 19:57:49.399233 15516 layer_factory.hpp:77] Creating layer conv16_2_mbox_conf_new
I0521 19:57:49.399245 15516 net.cpp:100] Creating Layer conv16_2_mbox_conf_new
I0521 19:57:49.399252 15516 net.cpp:434] conv16_2_mbox_conf_new <- conv16_2_conv16_2/relu_0_split_2
I0521 19:57:49.399261 15516 net.cpp:408] conv16_2_mbox_conf_new -> conv16_2_mbox_conf
I0521 19:57:49.401072 15516 net.cpp:150] Setting up conv16_2_mbox_conf_new
I0521 19:57:49.401088 15516 net.cpp:157] Top shape: 8 12 2 2 (384)
I0521 19:57:49.401093 15516 net.cpp:165] Memory required for data: 1289825248
I0521 19:57:49.401099 15516 layer_factory.hpp:77] Creating layer conv16_2_mbox_conf_perm
I0521 19:57:49.401110 15516 net.cpp:100] Creating Layer conv16_2_mbox_conf_perm
I0521 19:57:49.401118 15516 net.cpp:434] conv16_2_mbox_conf_perm <- conv16_2_mbox_conf
I0521 19:57:49.401125 15516 net.cpp:408] conv16_2_mbox_conf_perm -> conv16_2_mbox_conf_perm
I0521 19:57:49.401221 15516 net.cpp:150] Setting up conv16_2_mbox_conf_perm
I0521 19:57:49.401230 15516 net.cpp:157] Top shape: 8 2 2 12 (384)
I0521 19:57:49.401233 15516 net.cpp:165] Memory required for data: 1289826784
I0521 19:57:49.401237 15516 layer_factory.hpp:77] Creating layer conv16_2_mbox_conf_flat
I0521 19:57:49.401244 15516 net.cpp:100] Creating Layer conv16_2_mbox_conf_flat
I0521 19:57:49.401252 15516 net.cpp:434] conv16_2_mbox_conf_flat <- conv16_2_mbox_conf_perm
I0521 19:57:49.401258 15516 net.cpp:408] conv16_2_mbox_conf_flat -> conv16_2_mbox_conf_flat
I0521 19:57:49.401283 15516 net.cpp:150] Setting up conv16_2_mbox_conf_flat
I0521 19:57:49.401290 15516 net.cpp:157] Top shape: 8 48 (384)
I0521 19:57:49.401293 15516 net.cpp:165] Memory required for data: 1289828320
I0521 19:57:49.401298 15516 layer_factory.hpp:77] Creating layer conv16_2_mbox_priorbox
I0521 19:57:49.401307 15516 net.cpp:100] Creating Layer conv16_2_mbox_priorbox
I0521 19:57:49.401314 15516 net.cpp:434] conv16_2_mbox_priorbox <- conv16_2_conv16_2/relu_0_split_3
I0521 19:57:49.401332 15516 net.cpp:434] conv16_2_mbox_priorbox <- data_data_0_split_5
I0521 19:57:49.401343 15516 net.cpp:408] conv16_2_mbox_priorbox -> conv16_2_mbox_priorbox
I0521 19:57:49.401372 15516 net.cpp:150] Setting up conv16_2_mbox_priorbox
I0521 19:57:49.401381 15516 net.cpp:157] Top shape: 1 2 96 (192)
I0521 19:57:49.401384 15516 net.cpp:165] Memory required for data: 1289829088
I0521 19:57:49.401387 15516 layer_factory.hpp:77] Creating layer conv17_2_mbox_loc
I0521 19:57:49.401399 15516 net.cpp:100] Creating Layer conv17_2_mbox_loc
I0521 19:57:49.401407 15516 net.cpp:434] conv17_2_mbox_loc <- conv17_2_conv17_2/relu_0_split_0
I0521 19:57:49.401414 15516 net.cpp:408] conv17_2_mbox_loc -> conv17_2_mbox_loc
I0521 19:57:49.403971 15516 net.cpp:150] Setting up conv17_2_mbox_loc
I0521 19:57:49.403987 15516 net.cpp:157] Top shape: 8 24 1 1 (192)
I0521 19:57:49.403991 15516 net.cpp:165] Memory required for data: 1289829856
I0521 19:57:49.403998 15516 layer_factory.hpp:77] Creating layer conv17_2_mbox_loc_perm
I0521 19:57:49.404008 15516 net.cpp:100] Creating Layer conv17_2_mbox_loc_perm
I0521 19:57:49.404013 15516 net.cpp:434] conv17_2_mbox_loc_perm <- conv17_2_mbox_loc
I0521 19:57:49.404021 15516 net.cpp:408] conv17_2_mbox_loc_perm -> conv17_2_mbox_loc_perm
I0521 19:57:49.404119 15516 net.cpp:150] Setting up conv17_2_mbox_loc_perm
I0521 19:57:49.404126 15516 net.cpp:157] Top shape: 8 1 1 24 (192)
I0521 19:57:49.404130 15516 net.cpp:165] Memory required for data: 1289830624
I0521 19:57:49.404134 15516 layer_factory.hpp:77] Creating layer conv17_2_mbox_loc_flat
I0521 19:57:49.404141 15516 net.cpp:100] Creating Layer conv17_2_mbox_loc_flat
I0521 19:57:49.404145 15516 net.cpp:434] conv17_2_mbox_loc_flat <- conv17_2_mbox_loc_perm
I0521 19:57:49.404155 15516 net.cpp:408] conv17_2_mbox_loc_flat -> conv17_2_mbox_loc_flat
I0521 19:57:49.404179 15516 net.cpp:150] Setting up conv17_2_mbox_loc_flat
I0521 19:57:49.404187 15516 net.cpp:157] Top shape: 8 24 (192)
I0521 19:57:49.404191 15516 net.cpp:165] Memory required for data: 1289831392
I0521 19:57:49.404196 15516 layer_factory.hpp:77] Creating layer conv17_2_mbox_conf_new
I0521 19:57:49.404207 15516 net.cpp:100] Creating Layer conv17_2_mbox_conf_new
I0521 19:57:49.404213 15516 net.cpp:434] conv17_2_mbox_conf_new <- conv17_2_conv17_2/relu_0_split_1
I0521 19:57:49.404219 15516 net.cpp:408] conv17_2_mbox_conf_new -> conv17_2_mbox_conf
I0521 19:57:49.405961 15516 net.cpp:150] Setting up conv17_2_mbox_conf_new
I0521 19:57:49.405977 15516 net.cpp:157] Top shape: 8 12 1 1 (96)
I0521 19:57:49.405982 15516 net.cpp:165] Memory required for data: 1289831776
I0521 19:57:49.405989 15516 layer_factory.hpp:77] Creating layer conv17_2_mbox_conf_perm
I0521 19:57:49.405998 15516 net.cpp:100] Creating Layer conv17_2_mbox_conf_perm
I0521 19:57:49.406005 15516 net.cpp:434] conv17_2_mbox_conf_perm <- conv17_2_mbox_conf
I0521 19:57:49.406013 15516 net.cpp:408] conv17_2_mbox_conf_perm -> conv17_2_mbox_conf_perm
I0521 19:57:49.406109 15516 net.cpp:150] Setting up conv17_2_mbox_conf_perm
I0521 19:57:49.406117 15516 net.cpp:157] Top shape: 8 1 1 12 (96)
I0521 19:57:49.406121 15516 net.cpp:165] Memory required for data: 1289832160
I0521 19:57:49.406126 15516 layer_factory.hpp:77] Creating layer conv17_2_mbox_conf_flat
I0521 19:57:49.406133 15516 net.cpp:100] Creating Layer conv17_2_mbox_conf_flat
I0521 19:57:49.406137 15516 net.cpp:434] conv17_2_mbox_conf_flat <- conv17_2_mbox_conf_perm
I0521 19:57:49.406144 15516 net.cpp:408] conv17_2_mbox_conf_flat -> conv17_2_mbox_conf_flat
I0521 19:57:49.406167 15516 net.cpp:150] Setting up conv17_2_mbox_conf_flat
I0521 19:57:49.406173 15516 net.cpp:157] Top shape: 8 12 (96)
I0521 19:57:49.406177 15516 net.cpp:165] Memory required for data: 1289832544
I0521 19:57:49.406179 15516 layer_factory.hpp:77] Creating layer conv17_2_mbox_priorbox
I0521 19:57:49.406191 15516 net.cpp:100] Creating Layer conv17_2_mbox_priorbox
I0521 19:57:49.406198 15516 net.cpp:434] conv17_2_mbox_priorbox <- conv17_2_conv17_2/relu_0_split_2
I0521 19:57:49.406203 15516 net.cpp:434] conv17_2_mbox_priorbox <- data_data_0_split_6
I0521 19:57:49.406224 15516 net.cpp:408] conv17_2_mbox_priorbox -> conv17_2_mbox_priorbox
I0521 19:57:49.406255 15516 net.cpp:150] Setting up conv17_2_mbox_priorbox
I0521 19:57:49.406262 15516 net.cpp:157] Top shape: 1 2 24 (48)
I0521 19:57:49.406266 15516 net.cpp:165] Memory required for data: 1289832736
I0521 19:57:49.406270 15516 layer_factory.hpp:77] Creating layer mbox_loc
I0521 19:57:49.406281 15516 net.cpp:100] Creating Layer mbox_loc
I0521 19:57:49.406288 15516 net.cpp:434] mbox_loc <- conv11_mbox_loc_flat
I0521 19:57:49.406296 15516 net.cpp:434] mbox_loc <- conv13_mbox_loc_flat
I0521 19:57:49.406302 15516 net.cpp:434] mbox_loc <- conv14_2_mbox_loc_flat
I0521 19:57:49.406307 15516 net.cpp:434] mbox_loc <- conv15_2_mbox_loc_flat
I0521 19:57:49.406311 15516 net.cpp:434] mbox_loc <- conv16_2_mbox_loc_flat
I0521 19:57:49.406319 15516 net.cpp:434] mbox_loc <- conv17_2_mbox_loc_flat
I0521 19:57:49.406327 15516 net.cpp:408] mbox_loc -> mbox_loc
I0521 19:57:49.406352 15516 net.cpp:150] Setting up mbox_loc
I0521 19:57:49.406360 15516 net.cpp:157] Top shape: 8 7668 (61344)
I0521 19:57:49.406363 15516 net.cpp:165] Memory required for data: 1290078112
I0521 19:57:49.406368 15516 layer_factory.hpp:77] Creating layer mbox_conf
I0521 19:57:49.406379 15516 net.cpp:100] Creating Layer mbox_conf
I0521 19:57:49.406384 15516 net.cpp:434] mbox_conf <- conv11_mbox_conf_flat
I0521 19:57:49.406394 15516 net.cpp:434] mbox_conf <- conv13_mbox_conf_flat
I0521 19:57:49.406400 15516 net.cpp:434] mbox_conf <- conv14_2_mbox_conf_flat
I0521 19:57:49.406406 15516 net.cpp:434] mbox_conf <- conv15_2_mbox_conf_flat
I0521 19:57:49.406411 15516 net.cpp:434] mbox_conf <- conv16_2_mbox_conf_flat
I0521 19:57:49.406417 15516 net.cpp:434] mbox_conf <- conv17_2_mbox_conf_flat
I0521 19:57:49.406424 15516 net.cpp:408] mbox_conf -> mbox_conf
I0521 19:57:49.406447 15516 net.cpp:150] Setting up mbox_conf
I0521 19:57:49.406455 15516 net.cpp:157] Top shape: 8 3834 (30672)
I0521 19:57:49.406457 15516 net.cpp:165] Memory required for data: 1290200800
I0521 19:57:49.406461 15516 layer_factory.hpp:77] Creating layer mbox_priorbox
I0521 19:57:49.406471 15516 net.cpp:100] Creating Layer mbox_priorbox
I0521 19:57:49.406474 15516 net.cpp:434] mbox_priorbox <- conv11_mbox_priorbox
I0521 19:57:49.406479 15516 net.cpp:434] mbox_priorbox <- conv13_mbox_priorbox
I0521 19:57:49.406486 15516 net.cpp:434] mbox_priorbox <- conv14_2_mbox_priorbox
I0521 19:57:49.406491 15516 net.cpp:434] mbox_priorbox <- conv15_2_mbox_priorbox
I0521 19:57:49.406498 15516 net.cpp:434] mbox_priorbox <- conv16_2_mbox_priorbox
I0521 19:57:49.406502 15516 net.cpp:434] mbox_priorbox <- conv17_2_mbox_priorbox
I0521 19:57:49.406510 15516 net.cpp:408] mbox_priorbox -> mbox_priorbox
I0521 19:57:49.406533 15516 net.cpp:150] Setting up mbox_priorbox
I0521 19:57:49.406540 15516 net.cpp:157] Top shape: 1 2 7668 (15336)
I0521 19:57:49.406543 15516 net.cpp:165] Memory required for data: 1290262144
I0521 19:57:49.406546 15516 layer_factory.hpp:77] Creating layer mbox_conf_reshape
I0521 19:57:49.406558 15516 net.cpp:100] Creating Layer mbox_conf_reshape
I0521 19:57:49.406563 15516 net.cpp:434] mbox_conf_reshape <- mbox_conf
I0521 19:57:49.406572 15516 net.cpp:408] mbox_conf_reshape -> mbox_conf_reshape
I0521 19:57:49.406603 15516 net.cpp:150] Setting up mbox_conf_reshape
I0521 19:57:49.406611 15516 net.cpp:157] Top shape: 8 1917 2 (30672)
I0521 19:57:49.406615 15516 net.cpp:165] Memory required for data: 1290384832
I0521 19:57:49.406618 15516 layer_factory.hpp:77] Creating layer mbox_conf_softmax
I0521 19:57:49.406627 15516 net.cpp:100] Creating Layer mbox_conf_softmax
I0521 19:57:49.406632 15516 net.cpp:434] mbox_conf_softmax <- mbox_conf_reshape
I0521 19:57:49.406641 15516 net.cpp:408] mbox_conf_softmax -> mbox_conf_softmax
I0521 19:57:49.407261 15516 net.cpp:150] Setting up mbox_conf_softmax
I0521 19:57:49.407276 15516 net.cpp:157] Top shape: 8 1917 2 (30672)
I0521 19:57:49.407281 15516 net.cpp:165] Memory required for data: 1290507520
I0521 19:57:49.407286 15516 layer_factory.hpp:77] Creating layer mbox_conf_flatten
I0521 19:57:49.407306 15516 net.cpp:100] Creating Layer mbox_conf_flatten
I0521 19:57:49.407313 15516 net.cpp:434] mbox_conf_flatten <- mbox_conf_softmax
I0521 19:57:49.407320 15516 net.cpp:408] mbox_conf_flatten -> mbox_conf_flatten
I0521 19:57:49.407351 15516 net.cpp:150] Setting up mbox_conf_flatten
I0521 19:57:49.407358 15516 net.cpp:157] Top shape: 8 3834 (30672)
I0521 19:57:49.407362 15516 net.cpp:165] Memory required for data: 1290630208
I0521 19:57:49.407366 15516 layer_factory.hpp:77] Creating layer detection_out
I0521 19:57:49.407384 15516 net.cpp:100] Creating Layer detection_out
I0521 19:57:49.407390 15516 net.cpp:434] detection_out <- mbox_loc
I0521 19:57:49.407397 15516 net.cpp:434] detection_out <- mbox_conf_flatten
I0521 19:57:49.407403 15516 net.cpp:434] detection_out <- mbox_priorbox
I0521 19:57:49.407411 15516 net.cpp:408] detection_out -> detection_out
I0521 19:57:49.407465 15516 net.cpp:150] Setting up detection_out
I0521 19:57:49.407474 15516 net.cpp:157] Top shape: 1 1 1 7 (7)
I0521 19:57:49.407477 15516 net.cpp:165] Memory required for data: 1290630236
I0521 19:57:49.407480 15516 layer_factory.hpp:77] Creating layer detection_eval
I0521 19:57:49.407492 15516 net.cpp:100] Creating Layer detection_eval
I0521 19:57:49.407498 15516 net.cpp:434] detection_eval <- detection_out
I0521 19:57:49.407503 15516 net.cpp:434] detection_eval <- label
I0521 19:57:49.407510 15516 net.cpp:408] detection_eval -> detection_eval
I0521 19:57:49.407559 15516 net.cpp:150] Setting up detection_eval
I0521 19:57:49.407567 15516 net.cpp:157] Top shape: 1 1 2 5 (10)
I0521 19:57:49.407570 15516 net.cpp:165] Memory required for data: 1290630276
I0521 19:57:49.407574 15516 net.cpp:228] detection_eval does not need backward computation.
I0521 19:57:49.407582 15516 net.cpp:228] detection_out does not need backward computation.
I0521 19:57:49.407586 15516 net.cpp:228] mbox_conf_flatten does not need backward computation.
I0521 19:57:49.407591 15516 net.cpp:228] mbox_conf_softmax does not need backward computation.
…
